models/LorenzSSM_danse_opt_gru_m_3_n_3_T_1000_N_500_sigmae2_-10.0dB_smnr_20.0dB/danse_gru_ckpt_epoch_671_best.pt (torch, 20799 bytes, 10 tensors)

rnn.rnn.weight_ih_l0 f4 [90, 3]
-0.25978115 -0.3542367 0.36842588 0.053389743 -0.14672056 -0.34321716 0.13313487 0.047052417
0.16632156 0.17521429 0.26815233 0.1958502 0.11187809 0.085334204 0.16618787 0.09185172
-0.11729852 -0.24155203 -0.04419029 -0.09762559 0.073534094 -0.076117896 0.009169341 0.016740909
0.007917828 0.22881074 0.119469866 0.13228694 -0.2289596 0.25614336 0.3142475 0.46834204
1.0015981 0.055683948 0.038853586 -0.20941436 0.06130349 -0.041981366 0.28522193 0.18247947
0.24494615 0.24847874 0.19390975 0.14341198 0.1326832 0.088760555 -0.062756136 -0.2506308
0.21781315 0.166377 0.0067258133 -0.15245008 -0.23398095 0.14853336 -0.23287074 -0.12929757
0.20393163 0.1859734 0.088955835 0.17642953 -0.18403415 -0.11275147 0.185602 -0.4708967
-0.39005566 0.20796274 0.12405596 -0.11914822 -0.06988777 0.19944452 0.09176067 0.14335965
-0.167487 0.0476686 -0.1511797 -0.1854912 -0.36765286 0.20179969 -0.16389295 -0.12343533
-0.0042268913 0.025173929 -0.09184803 -0.27192515 -0.023831017 0.16592008 0.11220159 -0.14773926
0.030790808 0.08892339 0.0402658 0.06878877 0.008116061 0.121584 -0.0019326934 0.029024523
0.28508765 0.14667965 -0.83987635 -0.034513775 0.13296115 -0.060262535 -0.2664343 0.31524086
-0.18869679 0.07615477 0.023090422 -0.008618497 -0.110524654 -0.065260634 0.012949312 -0.007856577
-0.063647605 0.014937361 0.17306405 0.22237998 0.094677016 -0.33861902 -0.23115551 0.1625004
0.068057105 -0.05796415 -0.06539224 -0.39009872 0.18130334 0.091623634 0.035205923 0.08436026
0.03821672 -0.007876306 0.023856303 0.024112621 0.058913436 0.0016865174 -0.12524143 0.0364017
0.05339583 -0.028957585 0.004875496 -0.019333702 -0.023582213 0.031294655 -0.3419002 -0.61638594
-0.015995568 -0.041090336 -0.03070285 0.03536307 -0.016861187 -0.034488 -0.022101454 0.028830355
-0.0444632 0.03322139 0.029113548 -0.21290559 0.13999328 0.11295258 0.059738737 0.03902444
0.054857 0.06372234 -0.07802345 0.02243565 0.009835352 0.016745433 -0.0060967696 -0.031247215
0.036182813 -0.00609863 0.03820367 0.049755298 -0.0152486935 -0.03373482 -0.02808791 0.015045957
0.033840325 -0.081235126 0.024574973 -0.0115105165 -0.046981458 -0.0026673416 0.14400664 0.0617002
-0.122795336 -0.14567457 0.009284387 0.0071618226 0.05187758 0.037608698 0.084562466 -0.10484721
-0.009616549 -0.01703381 0.20710725 0.030469067 0.12527283 0.16863981 -0.088772886 -0.027844511
-0.22987422 0.017449528 -0.07626009 0.078762226 -0.020466903 -0.029126838 0.085473165 -0.09623255
-0.06814923 0.06087115 0.24254103 -0.08868949 -0.11418403 -0.024747485 -0.027302772 0.1208537
-0.005178699 -0.035214964 -0.17360221 -0.00070414407 0.0059585725 0.13439026 -0.005876156 -0.019084897
-0.087056175 0.026906734 0.14657901 0.09399428 -0.012520191 0.10221624 -0.10337738 -0.025615854
0.041475706 0.030940913 0.08445933 0.075866595 0.21383724 0.11062889 0.05157986 -0.019703163
-0.06569556 0.1267993 0.08278016 0.073531754 0.028420648 0.050812118 0.118093416 -0.08422682
-0.16696398 0.06826482 -0.0013200314 -0.13936812 -0.03818298 0.05106638 -0.12521325 0.105169296
00000000: 0902 85be 835e b5be 51a2 bc3e 34af 5a3d
00000010: ea3d 16be 29ba afbe 8254 083e 09ba 403d
00000020: 3350 2a3e 606b 333e 434b 893e f48c 483e
00000030: 5720 e53d b3c3 ae3d 272d 2a3e c11c bc3d
00000040: 353a f0bd 6a59 77be e100 35bd edef c7bd
00000050: 0b99 963d b3e3 9bbd 013b 163c 3b24 893c
00000060: c7b9 013c 5d4d 6a3e 9eac f43d 3a76 073e
00000070: 6374 6abe 3925 833e 0ce5 a03e 87ca ef3e
00000080: 5e34 803f da14 643d f024 1f3d b870 56be
00000090: 5e19 7b3d a7f4 2bbd 9c08 923e e6db 3a3e
000000a0: 2ad3 7a3e 3671 7e3e 4790 463e 97da 123e
000000b0: 1bde 073e 18c8 b53d 4a86 80bd ae52 80be
000000c0: 690a 5f3e bb5e 2a3e 3664 dc3b e01b 1cbe
000000d0: b498 6fbe 2119 183e ab75 6ebe 9566 04be
000000e0: 74d3 503e d06f 3e3e 7a2e b63d f1a9 343e
000000f0: 7373 3cbe 3eea e6bd 730e 3e3e 5f19 f1be
00000100: 60b5 c7be 2ff4 543e 0d11 fe3d fb03 f4bd
00000110: 5221 8fbd 2f3b 4c3e 05ed bb3d dfcc 123e
00000120: b681 2bbe 2640 433d dace 1abe 68f1 3dbe
00000130: ff3c bcbe 94a4 4e3e 8ed3 27be aacb fcbd
00000140: bc81 8abb 8e39 ce3c d21a bcbd c639 8bbe
00000150: 4439 c3bc f4e6 293e f2c9 e53d f648 17be
00000160: 013d fc3c 771d b63d c0ed 243d 20e1 8c3d
00000170: 3af9 043c 0801 f93d 6e52 fdba d6c4 ed3c
00000180: 02f7 913e 3133 163e 2302 57bf 515e 0dbd
00000190: f826 083e d9d5 76bd 146a 88be 4067 a13e
000001a0: bb39 41be 08f7 9b3d 2028 bd3c 9934 0dbc
000001b0: c05a e2bd 5ea7 85bd 5a29 543c dfb8 00bc
000001c0: ad59 82bd d5bb 743c b437 313e 94b7 633e
000001d0: 06e6 c13d 795f adbe 08b4 6cbe 8166 263e
000001e0: 8661 8b3d d16b 6dbd 5eec 85bd 05bb c7be
000001f0: 95a7 393e 2ca5 bb3d 1634 103d 12c5 ac3d
00000200: 2389 1c3d 9f0b 01bc 4b6e c33c d587 c53c
00000210: 374f 713d 220e dd3a 4a3f 00be f319 153d
00000220: 96b5 5a3d 7538 edbc a0c2 9f3b b661 9ebc
00000230: 7c2f c1bc d32e 003d 8b0d afbe 78cb 1dbf
00000240: 2309 83bc 574e 28bd 8b84 fbbc ded8 103d
00000250: 7920 8abc 4a43 0dbd 1c0e b5bc a32d ec3c
00000260: 0b1f 36bd 2713 083d 897f ee3c ec03 5abe
00000270: 665a 0f3e af53 e73d 9bb0 743d 17d8 1f3d
00000280: bcb1 603d dc80 823d c2ca 9fbd f8ca b73c
00000290: 7524 213c b82d 893c 69c7 c7bb 29fa ffbc
000002a0: 6e34 143d 04d7 c7bb 747b 1c3d 36cc 4b3d
000002b0: a8d5 79bc 862d 0abd 9e18 e6bc 5183 763c
000002c0: 279c 0a3d 9a5e a6bd 7451 c93c 9b96 3cbc
000002d0: a16f 40bd 91ce 2ebb 7a76 133e 59b9 7c3d
000002e0: 1f7c fbbd b72b 15be 8b1d 183c b9ad ea3b
000002f0: 967d 543d 940b 1a3d 162f ad3d 22ba d6bd
00000300: bb8e 1dbc 7d8a 8bbc ec13 543e 449a f93c
00000310: 8547 003e eaaf 2c3e 8fce b5bd 2c1a e4bc
00000320: 2664 6bbe 50f2 8e3c 402e 9cbd 174e a13d
00000330: 35aa a7bc 689b eebc 8e0c af3d 9215 c5bd
00000340: d391 8bbd 0754 793d ad5c 783e d6a2 b5bd
00000350: 51d9 e9bd 3dbb cabc 10aa dfbc 2582 f73d
00000360: 13b2 a9bb 913d 10bd c7c4 31be 4f96 38ba
00000370: 2140 c33b 9a9d 093e c58c c0bb ee57 9cbc
00000380: 824a b2bd 836b dc3c cf18 163e 1380 c03d
00000390: 7d21 4dbc bf56 d13d 85b7 d3bd 57d8 d1bc
000003a0: 6ee2 293d cc77 fd3c 03f9 ac3d f25f 9b3d
000003b0: 26f8 5a3e 6691 e23d 6745 533d 8768 a1bc
000003c0: 658b 86bd add7 013e a588 a93d d197 963d
000003d0: 6bd2 e83c 5e20 503d f6da f13d 1c7f acbd
000003e0: 9bf8 2abe 6dce 8b3d e704 adba 84b6 0ebe
000003f0: c265 1cbd fb2a 513d e737 00be 0063 d73d

rnn.rnn.weight_hh_l0 f4 [90, 30]
-0.7648851 -0.34398353 -1.3415651 -0.63326573 -0.7700096 0.36629334 -0.11674018 -0.33777276
-0.07927544 -0.06023328 -0.31567967 0.36043754 -0.9288894 -0.70142037 1.1326339 0.38075477
0.15365566 0.24070403 0.3314882 0.49386805 0.1380278 -0.526212 -0.43405053 0.30523127
-0.89874786 0.6585723 0.9339584 -0.59304243 0.20806673 0.3956044 -0.47513846 -0.41668114
-0.605884 -0.14659126 -0.09848348 0.15927617 0.014318457 -0.4237302 -0.46239787 0.16997026
0.119069025 0.157069 0.14073502 -0.112291306 0.3205873 0.051772553 0.24229729 -0.5295769
0.036400307 0.034980085 -0.3553012 -0.36448747 -0.026201194 0.099372946 0.14591117 -0.45068428
-0.3796852 -0.032355376 -0.56915003 0.41386384 0.26477498 0.18504763 0.09839864 -0.26948753
-0.16471584 0.17208332 -0.015010032 0.004355267 -0.10152603 0.31657165 0.060217813 0.04282474
-0.021378007 -0.08064291 0.51283693 0.13493583 0.17781138 0.43214822 0.09045458 0.052421436
0.22556669 -0.054774597 -0.16110733 0.34058046 -0.1398091 0.48617154 -0.42644835 0.036450252
-0.33718973 -0.17883267 0.13327831 -0.058585145 0.06154158 -0.15781471 0.32713184 0.19188184
-0.10296215 0.14072134 -0.24096054 -0.20287988 -0.1300605 0.23563431 0.054818347 -0.024914648
-0.18742478 -0.15582928 -0.44666317 0.16184136 0.011518397 0.05955135 -0.003947545 0.08346675
-0.39944804 -0.027345886 0.016179483 0.29971778 0.47377527 -0.0066864355 0.34231862 -0.34454614
-0.29602966 0.5461066 -0.038797602 0.4924729 -0.20019624 -0.29803398 0.36811733 -0.11093402
-0.039906394 0.47471404 0.028205538 -0.25467786 0.3792587 -0.097606346 0.21811014 -0.38790137
0.35177332 -0.18824047 -0.29145843 0.09254233 -0.15691806 -0.2838296 0.19567321 0.030818949
0.20791283 -0.09452174 0.106703945 0.01683592 -0.15739071 -0.06644634 -0.3016624 0.49425068
-0.18458328 0.13352954 -0.4770932 -0.326028 0.34131393 -0.42602256 0.12434999 -0.0032848963
0.55871284 -0.45976013 0.9746225 -0.34727937 -0.0048161456 -0.8072135 -0.47478902 -0.105183065
-0.6947921 0.087890536 0.011376022 -0.26461732 0.38496643 0.08584651 0.69726515 -0.1540983
-0.30336368 0.7560957 0.58043224 -0.48238856 -0.10843713 -0.42252243 -0.096698925 -0.21410383
0.10388495 0.063614875 -0.3560542 -0.16057065 0.0137845725 0.045506526 -0.30922535 0.58344287
-0.17130569 -0.3809982 -0.1903326 0.32381546 0.07195347 -0.041251786 0.046364367 0.017945157
0.061388616 0.19839393 -0.6024287 0.2036088 -0.021216193 0.19893557 0.111323304 -0.08875758
-0.1156969 -0.08675482 -0.06966247 0.057438385 -0.5466773 -0.09766126 -0.050925963 -0.0053863223
-0.010684879 0.13060413 -0.24363923 0.381254 -0.16754997 -0.07629235 -0.15232213 -0.45678043
0.28057432 0.1231027 -0.09816797 -0.3186468 0.018216632 -0.51237667 -0.27101696 0.034799777
-0.055354107 0.44221365 -0.23503022 -0.5373715 -0.10700551 -0.036366764 -0.7677986 1.8866395
-0.24404313 -0.2631408 -0.3075933 -0.21695168 0.5010687 0.027408365 -0.39100614 -0.07296716
-0.48086655 -0.16602488 -0.27869308 0.332071 -0.40867212 0.35796267 -0.1394323 0.12941745
00000000: 83cf 43bf 9c1e b0be 68b8 abbf b41d 22bf
00000010: 591f 45bf cd8a bb3e 7a15 efbd 8df0 acbe
00000020: 295b a2bd 2cb7 76bd c4a0 a1be 458b b83e
00000030: b2cb 6dbf 4990 33bf 26fa 903f 4af2 c23e
00000040: e957 1d3e 1e7b 763e d2b8 a93e 46dc fc3e
00000050: 2957 0d3e d4b5 06bf df3b debe 4647 9c3e
00000060: 5714 66bf 3298 283f e617 6f3f a1d1 17bf
00000070: 720f 553e a98c ca3e 5945 f3be 3b57 d5be
00000080: 371b 1bbf 051c 16be b5b1 c9bd 4b19 233e
00000090: f697 6a3c 2af3 d8be 6abf ecbe af0c 2e3e
000000a0: 76da f33d b2d6 203e d71c 103e fcf8 e5bd
000000b0: 0524 a43e 750f 543d c81c 783e 5a92 07bf
000000c0: 7d18 153d 4747 0f3d 0aea b5be 1a9e babe
000000d0: e3a3 d6bc 0b84 cb3d bd69 153e 17c0 e6be
000000e0: 1966 c2be 1287 04bd d1b3 11bf f6e5 d33e
000000f0: 9690 873e 207d 3d3e 3a85 c93d 45fa 89be
00000100: 45ab 28be 9c36 303e a3ec 75bc a1b6 8e3b
00000110: e1ec cfbd ae15 a23e f4a6 763d ff68 2f3d
00000120: ee20 afbc 1c28 a5bd 4849 033f 9e2c 0a3e
00000130: 3014 363e 8842 dd3e 4040 b93d dcb7 563d
00000140: f4fa 663e 545b 60bd 52f9 24be 9060 ae3e
00000150: 1e2a 0fbe 7aeb f83e 7057 dabe dc4c 153d
00000160: 22a4 acbe e91f 37be 1c7a 083e faf6 6fbd
00000170: 0613 7c3d 2e9a 21be d37d a73e ac7c 443e
00000180: d2dd d2bd 4119 103e 5cbe 76be bebf 4fbe
00000190: 942e 05be 1f4a 713e 3489 603d ce19 ccbc
000001a0: 48ec 3fbe b691 1fbe 09b1 e4be beb9 253e
000001b0: a9b7 3c3c 1eec 733d 685a 81bb 9ef0 aa3d
000001c0: 7484 ccbe 7b04 e0bc d68a 843c 9c74 993e
000001d0: ac92 f23e e319 dbbb 6344 af3e 5a68 b0be
000001e0: 3391 97be a4cd 0b3f 3cea 1ebd 6825 fc3e
000001f0: 3e00 4dbe e997 98be e079 bc3e 6031 e3bd
00000200: e374 23bd b80d f33e 4d0f e73c 2365 82be
00000210: 322e c23e d6e5 c7bd 4458 5f3e 029b c6be
00000220: a21b b43e 1cc2 40be 0a3a 95be d586 bd3d
00000230: 21af 20be 1d52 91be 8f5e 483e 0578 fc3c
00000240: 1ae7 543e 9d94 c1bd 9987 da3d 7ceb 893c
00000250: 082b 21be 0515 88bd 7e73 9abe 6d0e fd3e
00000260: 6603 3dbe f8bb 083e 8f45 f4be 24ed a6be
00000270: b3c0 ae3e a11f dabe 35ab fe3d 6a47 57bb
00000280: ce07 0f3f ae65 ebbe dc80 793f 9ace b1be
00000290: c2d0 9dbb 8ba5 4ebf 8c17 f3be 386a d7bd
000002a0: e5dd 31bf f4ff b33d 7f62 3a3c ec7b 87be
000002b0: 521a c53e 4cd0 af3d f87f 323f f2cb 1dbe
000002c0: 7c52 9bbe 7d8f 413f 3597 143f a2fb f6be
000002d0: 4914 debd dc54 d8be 160a c6bd 093e 5bbe
000002e0: a2c1 d43d 8448 823d bc4c b6be a26c 24be
000002f0: b0d8 613c 0d65 3a3d c952 9ebe 835c 153f
00000300: c26a 2fbe 3212 c3be 8de6 42be 24cb a53e
00000310: 575c 933d a2f7 28bd 90e8 3d3d b901 933c
00000320: a172 7b3d c727 4b3e c438 1abf d37e 503e
00000330: 95cd adbc c4b5 4b3e 79fd e33d 89c6 b5bd
00000340: 7ff2 ecbd 83ac b1bd 32ab 8ebd 8344 6b3d
00000350: 0bf3 0bbf a002 c8bd be97 50bd bf7f b0bb
00000360: a10f 2fbc 17bd 053e 907c 79be b933 c33e
00000370: 3892 2bbe 2a3f 9cbd 55fa 1bbe 20df e9be
00000380: 70a7 8f3e 451d fc3d 4a0c c9bd ac25 a3be
00000390: 0c3b 953c 1e2b 03bf bcc2 8abe 368a 0e3d
000003a0: fdba 62bd d469 e23e c3ab 70be 2e91 09bf
000003b0: b425 dbbd 51f5 14bd 738e 44bf 677d f13f
000003c0: 71e6 79be 64ba 86be de7c 9dbe 9528 5ebe
000003d0: 0a46 003f 8287 e03c f531 c8be ce6f 95bd
000003e0: 2434 f6be 6d02 2abe dcb0 8ebe 3605 aa3e
000003f0: 793d d1be e246 b73e 57c7 0ebe 0286 043e

rnn.rnn.bias_ih_l0 f4 [90]
0.6639373 0.63108855 0.30905178 0.56466943 -0.1280382 0.5198919 0.49082303 0.12570319
0.44740114 -0.5488784 -0.584118 0.11567688 0.9633322 0.494155 0.028892428 0.13907559
0.2565534 0.7648542 -0.17164762 -0.101396404 0.2446362 -0.6528586 0.9588353 0.5817687
0.06630587 0.25224203 -0.002498395 -0.6916427 0.080416374 0.4582547 -0.77710587 -0.31064916
-0.41614383 0.2059768 2.2116084 0.29924443 0.089894846 -0.3900109 0.31648833 0.046243463
0.23309273 1.1972237 -0.67648625 -0.5188325 0.889764 0.20699811 -0.010151726 -1.2349812
1.3787026 -0.009043891 -0.057017792 0.99710315 -0.24440014 0.1691124 0.22295132 -0.10205857
-0.39881265 0.19764858 0.15093853 -0.040523876 -0.6397767 -0.42078358 -0.113013014 -0.07877769
-0.18258905 0.32832074 -0.71147907 -0.9646152 -0.2209214 -0.6136334 -0.37245822 0.27293208
0.44022033 -0.2750415 -0.029018845 0.28964746 0.027238423 -0.25592294 0.26010826 0.034692932
-0.39682746 -0.04257765 -0.5311939 0.55099714 0.5852242 -0.66066843 -0.08422277 0.2920929
0.22163838 0.08658563
00000000: cbf7 293f 058f 213f 093c 9e3e 2d8e 103f
00000010: 721c 03be a317 053f 284d fb3e 56b8 003e
00000020: c311 e53e 4b83 0cbf c288 15bf 00e8 ec3d
00000030: f09c 763f e201 fd3e d0af ec3c d569 0e3e
00000040: f85a 833e 7ccd 433f 65c4 2fbe eba8 cfbd
00000050: e981 7a3e be21 27bf 3b76 753f cbee 143f
00000060: 5fcb 873d de25 813e 1dbc 23bb 7f0f 31bf
00000070: 57b1 a43d 5ca0 ea3e 69f0 46bf 680d 9fbe
00000080: ce10 d5be 95eb 523e fe8a 0d40 9136 993e
00000090: ca1a b83d 82af c7be c20a a23e c969 3d3d
000000a0: dcaf 6e3e a03e 993f 342e 2dbf 35d2 04bf
000000b0: 93c7 633f 50f7 533e 6d53 26bc dd13 9ebf
000000c0: 5479 b03f d42c 14bc 7d8b 69bd 2742 7f3f
000000d0: 0844 7abe cd2b 2d3e 5a4d 643e 1504 d1bd
000000e0: 2c31 ccbe 6464 4a3e a18f 1a3e 5dfc 25bd
000000f0: 68c8 23bf f270 d7be 5e73 e7bd 3356 a1bd
00000100: a0f8 3abe a819 a83e 7e23 36bf 06f1 76bf
00000110: 3839 62be 1417 1dbf d8b2 bebe c1bd 8b3e
00000120: 8f64 e13e 3dd2 8cbe eeb8 edbc ac4c 943e
00000130: 1d23 df3c 5508 83be e92c 853e 2d1a 0e3d
00000140: f82c cbbe e765 2ebd 53fc 07bf 260e 0d3f
00000150: 41d1 153f 9121 29bf fd7c acbd 338d 953e
00000160: 2cf5 623e cf53 b13d

rnn.rnn.bias_hh_l0 f4 [90]
0.8177979 0.57174844 0.13786986 0.6087774 -0.3483872 0.59691584 0.55658627 -0.08761108
0.37402296 -0.41502595 -0.611398 0.15306894 0.9839299 0.29915103 -0.11954424 -0.053602375
0.02470832 0.69597524 -0.120545074 -0.35722792 0.25567642 -0.46560916 0.9031108 0.8282457
0.08907869 0.2458603 -0.009711771 -0.6123001 0.08064896 0.33416793 -0.9268795 -0.49545762
-0.7513191 0.10547794 2.098043 0.20465961 0.26305008 -0.2931425 0.018508613 0.12766564
0.24380665 1.2199341 -0.74302644 -0.45905733 0.7867715 0.07313697 0.24772054 -1.3461468
1.4211197 0.31504008 -0.015442268 0.8490118 -0.3112598 -0.12416703 0.15971182 0.15528888
-0.35491955 0.1339381 0.10590849 0.08790368 -0.65251297 -1.1905166 -0.40055868 0.17552842
-0.114821814 0.80074936 -0.5562022 -0.070025876 -0.4310549 -0.26287943 0.2919943 0.43698132
0.48234048 -0.3502359 0.01608962 0.5873999 0.11985083 -0.79759324 0.23162322 -0.09649491
-0.3209379 0.06716721 -1.4327186 0.73203915 0.6422975 -0.36908084 -0.23770595 -0.32281485
0.14647987 0.08283036
00000000: 345b 513f 1b5e 123f c22d 0d3e d6d8 1b3f
00000010: cf5f b2be 7acf 183f 707c 0e3f 706d b3bd
00000020: f07f bf3e 487e d4be 9484 1cbf 1bbe 1c3e
00000030: d4e2 7b3f 532a 993e 9cd3 f4bd 2a8e 5bbd
00000040: 1a69 ca3c 6f2b 323f 56e0 f6bd 94e6 b6be
00000050: 05e8 823e 5364 eebe 4532 673f e907 543f
00000060: e36e b63d cdc2 7b3e 1f1e 1fbc b3bf 1cbf
00000070: 482b a53d 0f18 ab3e fa47 6dbf 9fac fdbe
00000080: 7356 40bf d104 d83d 5646 0640 4a92 513e
00000090: 80ae 863e c616 96be 609f 973c c8ba 023e
000000a0: 73a8 793e cd26 9c3f fb36 3ebf 9009 ebbe
000000b0: db69 493f d6c8 953d 74aa 7d3e 8a4e acbf
000000c0: 40e7 b53f ef4c a13e 9101 7dbc d658 593f
000000d0: 725d 9fbe 494b febd 7f8b 233e 0c04 1f3e
000000e0: 04b8 b5be 1227 093e 8de6 d83d d806 b43d
000000f0: 170b 27bf d962 98bf 0716 cdbe b9bd 333e
00000100: b327 ebbd e9fd 4c3f 4463 0ebf ba69 8fbd
00000110: 3ab3 dcbe 2298 86be 4780 953e 04bc df3e
00000120: 55f5 f63e 1f52 b3be 61ce 833c d75f 163f
00000130: 5a74 f53d 122f 4cbf a32e 6d3e 209f c5bd
00000140: f951 a4be f68e 893d 5363 b7bf eb66 3b3f
00000150: 9c6d 243f 2af8 bcbe 3069 73be fd47 a5be
00000160: d2fe 153e f7a2 a93d

rnn.fc.weight f4 [32, 30]
0.042817995 -0.14570124 0.10272039 -0.04032 0.32926384 0.115997896 -0.24763888 0.35218716
0.01074009 -0.32959226 -0.32984397 0.3073977 -0.005739787 0.12788759 -0.03958507 0.099306084
0.32151282 0.20554107 0.2411292 0.7453056 0.45858726 0.14529672 -0.379456 0.06575642
0.25832382 -0.026190748 0.216718 -0.36234644 0.2428826 -0.49986994 0.041628156 0.0049702483
0.31286323 -0.10001872 0.340379 0.30428702 -0.3129212 0.122301444 -0.08616347 -0.005572364
-0.28184056 0.2339304 -0.25051793 0.07646953 -0.032531884 0.06993168 -0.26075026 0.36306718
0.06828419 0.04255748 0.059122384 0.18106626 -0.1679097 -0.36940297 -0.21752273 0.38688514
0.2784427 0.030533897 0.17018244 0.13185318 0.2560768 -0.2672987 0.08479781 -0.42664954
0.116801694 0.10368258 -0.20450644 0.39075947 0.08492187 0.013810807 -0.09965187 0.33446765
-0.38170978 -0.07808308 0.020209555 -0.0013796508 -0.3425213 0.30689752 0.093343124 -0.5596844
0.021132996 0.21412271 -0.059715047 -0.12763248 -0.23212785 0.060562678 0.029395102 -0.24430916
-0.024158433 0.48365697 0.3499856 -0.24536058 0.2898579 -0.105480574 0.22050865 0.13205677
-0.0314205 0.28692535 0.11729468 -0.23965569 -0.023456778 0.24562334 -0.1887319 0.34944978
-0.14501944 0.18555038 -0.057548948 0.20662054 0.33550307 0.08889331 0.032199666 0.088964075
-0.08180468 -0.1473798 -0.079189405 0.20727634 0.2659448 -0.37156063 0.35927486 -0.45441458
0.11969886 0.05176209 0.013819904 0.1813857 -0.3503832 0.17960978 0.14244474 -0.79111165
0.25228852 0.5473323 -0.010197642 0.10177956 -0.21834598 -0.03612497 0.27033475 -0.19503272
0.14647377 0.052564356 -0.005378044 -0.31528655 0.21866833 -0.041833337 0.007966987 -0.4604822
0.30511358 -0.39588723 -0.3046025 0.44118148 0.014293692 0.4401562 0.24476244 0.22125599
-0.24058445 0.19437465 0.34876817 0.026230345 -0.20099586 0.6760856 -0.7516275 -0.34860522
0.09663013 -0.047555596 0.030435015 0.17574191 -0.36412126 -0.10186437 0.27950856 0.14002389
0.3696415 0.8842161 -0.009597797 -0.011122507 0.0052076173 0.12127849 0.089876465 0.60339177
0.15492518 -0.27937302 0.15403928 -0.44223273 0.02756871 -0.36310625 0.18907775 -0.31605738
0.22981325 0.14427818 -0.29104283 -0.21943851 0.20769009 -0.061426125 -0.48870897 0.3214336
-0.4560274 0.3285584 -0.36879805 0.4016227 -0.04301347 0.2707913 0.318004 -0.16476941
0.529278 0.44932264 -0.29329273 -0.4555937 -0.2403671 -0.054409157 0.3310987 -0.11127666
0.7152567 -0.13154882 0.23504777 0.13755848 0.13881463 -0.055512708 -0.04826826 0.0673924
-0.32399893 0.13709195 0.24492015 -0.1852717 -0.3171359 0.08724957 -0.022284068 0.3346449
-0.3348155 0.44645092 0.05480883 0.26059958 0.20760721 0.19818747 0.16845743 0.13296467
-0.17070948 -0.14651506 0.07181323 0.35191238 0.18214573 -0.15168071 0.60239166 -0.514634
0.102791704 0.31026036 0.084666416 0.25403437 -0.2948254 0.10445645 0.24534856 0.4271773
-0.33931962 0.23852806 -0.104874715 -0.2616787 -0.04084009 -0.13697265 0.2070655 -0.08469308
00000000: ec61 2f3d b532 15be 115f d23d 9626 25bd
00000010: 4595 a83e 4e90 ed3d 0c95 7dbe e051 b43e
00000020: 34f7 2f3c 51c0 a8be 4fe1 a8be 3b63 9d3e
00000030: d314 bcbb f7f4 023e f423 22bd fd60 cb3d
00000040: 549d a43e 5c79 523e 93ea 763e 59cc 3e3f
00000050: f3cb ea3e aac8 143e 0f48 c2be 4dab 863d
00000060: 0543 843e fb8d d6bc 53eb 5d3e 7985 b9be
00000070: 37b6 783e f4ee ffbe 4982 2a3d 77dd a23b
00000080: 9c2f a03e 9dd6 ccbd 2846 ae3e 82cb 9b3e
00000090: 3537 a0be 2e79 fa3d 7976 b0bd 6198 b6bb
000000a0: 684d 90be 738b 6f3e e343 80be 0f9c 9c3d
000000b0: 2740 05bd 5738 8f3d 0f81 85be f1e3 b93e
000000c0: 95d8 8b3d c150 2e3d 502a 723d 6f69 393e
000000d0: 85f0 2bbe 6322 bdbe 47be 5ebe cf15 c63e
000000e0: 0b90 8e3e 3922 fa3c 4e44 2e3e 8504 073e
000000f0: 801c 833e 60db 88be 79aa ad3d cf71 dabe
00000100: ba35 ef3d 8857 d43d 236a 51be a011 c83e
00000110: 84eb ad3d b946 623c 4816 ccbd 583f ab3e
00000120: 776f c3be 06ea 9fbd 828e a53c 66d5 b4ba
00000130: f45e afbe ac21 9d3e ae2a bf3d 7a47 0fbf
00000140: 1b1f ad3c fc42 5b3e c497 74bd 17b2 02be
00000150: ecb2 6dbe 9210 783d ffcd f03c 2e2c 7abe
00000160: e8e7 c5bc e3a1 f73e 5031 b33e ce3f 7bbe
00000170: 4168 943e 3306 d8bd 05cd 613e e439 073e
00000180: c8b2 00bd e1e7 923e 3138 f03d 4d68 75be
00000190: 6e28 c0bc af84 7b3e ef42 41be 15eb b23e
000001a0: fa7f 14be eb00 3e3e 72b8 6bbd 5694 533e
000001b0: 0fc7 ab3e b20d b63d cce3 033d cc32 b63d
000001c0: 3689 a7bd bbea 16be 0e2e a2bd 4040 543e
000001d0: eb29 883e 323d bebe e0f2 b73e 07a9 e8be
000001e0: ad24 f53d 7c04 543d e16c 623c 2cbd 393e
000001f0: 6d65 b3be a0eb 373e 09dd 113e 4b86 4abf
00000200: f62b 813e f81d 0c3f 0314 27bc cd71 d03d
00000210: 1796 5fbe c7f7 13bd 5169 8a3e a8b6 47be
00000220: 38fd 153e b94d 573d 4e3a b0bb 3d6d a1be
00000230: 97ea 5f3e 6f59 2bbd f787 023c 53c4 ebbe
00000240: d937 9c3e bbb1 cabe dcf4 9bbe 8ae2 e13e
00000250: 1730 6a3c 275c e13e 01a3 7a3e ee90 623e
00000260: c55b 76be 260a 473e be91 b23e 05e1 d63c
00000270: dcd1 4dbe f213 2d3f a96a 40bf 627c b2be
00000280: 05e6 c53d a8c9 42bd da52 f93c b0f5 333e
00000290: 1a6e babe 449e d0bd bf1b 8f3e 6c62 0f3e
000002a0: a741 bd3e fd5b 623f 1440 1dbc 2d3b 36bc
000002b0: a9a4 aa3b db60 f83d 2711 b83d e277 1a3f
000002c0: b5a4 1e3e fb09 8fbe 79bc 1d3e 546c e2be
000002d0: c6d7 e13c 10e9 b9be 999d 413e 46d2 a1be
000002e0: 2a54 6b3e a9bd 133e 9103 95be 7db4 60be
000002f0: b6ac 543e f699 7bbd 1038 fabe f292 a43e
00000300: 6c7c e9be ce38 a83e 19d3 bcbe 7ea1 cd3e
00000310: e42e 30bd 28a5 8a3e 6cd1 a23e 50b9 28be
00000320: c37e 073f 9e0d e63e 772a 96be 9443 e9be
00000330: cb22 76be 23dc 5ebd c585 a93e 04e5 e3bd
00000340: 101b 373f bcb4 06be 5db0 703e 21dc 0c3e
00000350: 6c25 0e3e 4b61 63bd f0b4 45bd 0705 8a3d
00000360: 30e3 a5be d561 0c3e 59cc 7a3e ddb7 3dbe
00000370: a35f a2be e7af b23d 148d b6bc 9456 ab3e
00000380: f06c abbe 3795 e43e 397f 603d 4f6d 853e
00000390: fc96 543e a8f1 4a3e 1b80 2c3e e427 083e
000003a0: 77ce 2ebe 0b08 16be d112 933d dc2d b43e
000003b0: 6984 3a3e 3052 1bbe 5736 1a3f 0ebf 03bf
000003c0: 7584 d23d 72da 9e3e 9665 ad3d cb10 823e
000003d0: 5bf3 96be 43ed d53d a73c 7b3e fcb6 da3e
000003e0: 4dbb adbe b340 743e 8ec8 d6bd c0fa 85be
000003f0: f047 27bd 8f42 0cbe fa08 543e 9173 adbd

rnn.fc.bias f4 [32]
0.21110906 0.32525066 0.051224183 0.11023581 0.76910263 0.56802905 -0.01364705 0.30629548
0.8256961 -0.5344854 0.2208115 -0.2749918 -0.31894046 0.33620268 0.71422577 -0.030952701
0.61538225 0.2497518 -0.023137182 -0.0629457 -0.04187593 1.2223029 0.045392744 0.07909386
0.11897615 -0.2873349 -0.21483898 0.14601827 0.1645723 0.23824811 0.25013947 0.07561129
00000000: f92c 583e 4187 a63e 73d0 513d 50c3 e13d
00000010: e9e3 443f 5a6a 113f e097 5fbc c3d2 9c3e
00000020: d260 533f 09d4 08bf 691c 623e bacb 8cbe
00000030: 2a4c a3be c222 ac3e 80d7 363f 8590 fdbc
00000040: b189 1d3f f0be 7f3e 308a bdbc ade9 80bd
00000050: 1886 2bbd 6c74 9c3f beed 393d f6fb a13d
00000060: c5a9 f33d 8f1d 93be c0fe 5bbe d085 153e
00000070: a485 283e 50f7 733e 4812 803e 18da 9a3d

rnn.fc_mean.weight f4 [3, 32]
0.7437664 -0.2925221 -0.8510712 0.4096108 1.5109862 0.5872299 -0.32835293 0.199465
-0.40562555 1.008988 0.16299585 -0.970364 -1.7544411 -0.42741156 -0.5916856 -0.1573898
-0.4410532 -0.0075609065 -0.39101923 0.5035062 0.5033028 0.643027 -0.012894997 -0.06392562
-0.655735 0.99136233 0.09816328 -0.17713685 0.20597635 -0.08969652 -0.22291937 -0.016489921
1.0303239 -0.056595415 -0.4971446 0.36898273 -1.5655258 0.016194656 0.751318 0.5463706
2.6486406 -0.5097882 0.05950445 0.6743128 -0.118691124 -0.098030634 -1.3201792 0.43855393
-1.8103427 0.13615002 0.12850362 0.08181591 0.33853257 -0.73326725 -0.13189197 0.4377487
-0.11581716 1.579318 0.1465566 0.11414056 0.4194807 0.3606672 0.23381566 0.66636175
0.10253138 0.25291565 0.30138347 0.4110357 -0.04910567 0.04600101 0.47173408 0.09704644
-1.0521542 0.69357795 0.20824036 -0.3699539 0.49070823 0.32410356 -0.32681087 0.34548232
0.62824315 0.27746943 0.4502547 0.20097865 0.24659507 -0.46688643 0.24257144 0.38579586
0.49007064 0.009672604 -0.10169639 0.45192754 -0.059932094 0.36452648 0.46310452 0.26128063
00000000: 7a67 3e3f 75c5 95be cddf 59bf 82b8 d13e
00000010: ff67 c13f b354 163f e01d a8be 8e40 4c3e
00000020: 27ae cfbe 8526 813f 62e8 263e c669 78bf
00000030: 8791 e0bf b0d5 dabe b578 17bf cb2a 21be
00000040: bad1 e1be 7bc1 f7bb ac33 c8be c8e5 003f
00000050: 74d8 003f 6b9d 243f 8a45 53bc 6feb 82bd
00000060: 40de 27bf ecc9 7d3f d409 c93d 5d63 35be
00000070: 77eb 523e cfb2 b7bd fa44 64be df15 87bc
00000080: a7e1 833f 98d0 67bd bd89 febe 4eeb bc3e
00000090: 2663 c8bf a8aa 843c 6056 403f f2de 0b3f
000000a0: 5483 2940 7b81 02bf f0ba 733d c39f 2c3f
000000b0: 5514 f3bd 49c4 c8bd a2fb a8bf 248a e03e
000000c0: 4fb9 e7bf e96a 0b3e 7496 033e 1a8f a73d
000000d0: 2454 ad3e 67b7 3bbf b00e 07be 9920 e03e
000000e0: 8c31 edbd 1827 ca3f ef12 163e 87c2 e93d
000000f0: 2dc6 d63e 5fa9 b83e 5f6d 6f3e af96 2a3f
00000100: f9fb d13d 297e 813e ef4e 9a3e 4573 d23e
00000110: 0723 49bd 8e6b 3c3d 2187 f13e 49c0 c63d
00000120: fdac 86bf 538e 313f f63c 553e 996a bdbe
00000130: 1c3e fb3e e7f0 a53e c153 a7be 0fe3 b03e
00000140: 8bd4 203f 7910 8e3e c987 e63e 59cd 4d3e
00000150: 6b83 7c3e bd0b efbe a664 783e 0987 c53e
00000160: 8aea fa3e d779 1e3c 3246 d0bd 0c63 e73e
00000170: 5b7b 75bd 37a3 ba3e 091c ed3e 93c6 853e

rnn.fc_mean.bias f4 [3]
-0.46482748 0.43573326 0.014306401
00000000: defd edbe 6e18 df3e 6565 6a3c

rnn.fc_vars.weight f4 [3, 32]
0.08407965 0.077056244 0.12588799 0.07574964 1.3436265 0.6441164 0.03125573 0.23412701
1.5971348 -0.69698393 0.067072116 -1.3234968 -0.42704928 0.35700312 1.6475698 0.16763975
-0.19984122 0.18374008 0.23278388 0.022227062 0.32419226 2.8155417 0.20005715 0.13719064
0.27200717 -0.6533707 0.26812613 0.1984777 0.3949855 0.077831976 0.07885892 0.25151443
0.5391553 0.33284023 0.3810477 0.25974315 1.9913954 0.65358037 0.058166645 0.23041934
1.9968873 -0.66801465 0.10636901 -1.1096038 -0.25641355 0.17414346 1.3008 -0.035065006
-0.10334571 0.25504988 0.12702262 0.22540207 0.12545188 2.4395301 0.08492215 0.27345726
0.093060955 -0.72354823 0.17272796 0.25250995 0.1679119 0.19904105 0.044653527 -0.019198516
0.38129014 0.3229546 0.270536 0.33942065 1.4419568 0.5539529 0.11135354 0.3046343
0.598967 -1.0617552 0.354551 -1.5009255 -0.6113234 0.332145 2.1995347 0.20645978
-0.016939158 0.3627544 0.18785723 0.021220192 0.23402634 3.3426027 0.24429198 0.2528802
0.13554317 -0.69428253 -0.056776196 0.271552 0.07056924 0.18634549 0.1736721 0.32260528
00000000: f431 ac3d aacf 9d3d c8e8 003e a122 9b3d
00000010: f4fb ab3f d0e4 243f 0206 003d febe 6f3e
00000020: ea6e cc3f 8a6d 32bf 1b5d 893d 5868 a9bf
00000030: 34a6 dabe 1dc9 b63e 91e3 d23f c1a9 2b3e
00000040: 2da3 4cbe 5c26 3c3e e65e 6e3e 8715 b63c
00000050: 87fc a53e d631 3440 c8db 4c3e b47b 0c3e
00000060: 8644 8b3e 4d43 27bf d447 893e bd3d 4b3e
00000070: 8a3b ca3e 5f66 9f3d c980 a13d 80c6 803e
00000080: 1506 0a3f 096a aa3e af18 c33e 0efd 843e
00000090: 0be6 fe3f 0b51 273f 2640 6e3d 0cf3 6b3e
000000a0: 019a ff3f 0203 2bbf ffd7 d93d 7f07 8ebf
000000b0: a348 83be aa52 323e 9d80 a63f 53a0 0fbd
000000c0: eaa6 d3bd e695 823e 3812 023e cdcf 663e
000000d0: 7576 003e 4321 1c40 aaeb ad3d 9702 8c3e
000000e0: be96 be3d 753a 39bf 99df 303e fc48 813e
000000f0: 19f1 2b3e 6bd1 4b3e 9ee6 363d 3546 9dbc
00000100: 7638 c33e 4e5a a53e b283 8a3e 8bc8 ad3e
00000110: 0a92 b83f dbcf 0d3f 530d e43d 07f9 9b3e
00000120: e755 193f 98e7 87bf b587 b53e 541e c0bf
00000130: b17f 1cbf e90e aa3e 2dc5 0c40 316a 533e
00000140: fdc3 8abc f2ba b93e a55d 403e f8d5 ad3c
00000150: 9aa4 6f3e 34ed 5540 ad27 7a3e 8379 813e
00000160: d4cb 0a3e 80bc 31bf 288e 68bd dd08 8b3e
00000170: 9b86 903d 5ad1 3e3e 19d7 313e 852c a53e

rnn.fc_vars.bias f4 [3]
0.32564136 0.23872836 0.06382326
00000000: 77ba a63e 3575 743e c5b5 823d
