models/LorenzSSM_danse_opt_gru_m_3_n_3_T_1000_N_500_sigmae2_-10.0dB_smnr_10.0dB/danse_gru_ckpt_epoch_671_best.pt (torch, 20799 bytes, 10 tensors)

rnn.rnn.weight_ih_l0 f4 [90, 3]
000000 d8 68 11 3d b9 e6 69 be 19 fe 83 3c 59 4b 84 3e
       0.035500377 -0.2284192 0.016112374 0.25838736
000010 04 7a 6c 3e af a3 11 3d bc c9 40 be 56 18 0a be
       0.2309342 0.03555649 -0.18826956 -0.13485846
000020 7f c3 2b 3e 45 82 97 3c d7 ed 1c 3e 6a 9f 5d 3d
       0.16773795 0.018494735 0.15325104 0.054107107
000030 11 2e 5f 3d 3a 3b 37 3d 29 d2 2b 3d 4a d5 60 be
       0.05448729 0.044734217 0.04194847 -0.21956363
000040 21 19 a3 be 69 a8 a3 be cd 3a 38 bd eb 96 06 bc
       -0.3185511 -0.31964424 -0.04497795 -0.008214693
000050 50 7f cd 3e 8d 24 34 bd 75 ab 1e 3e 5a a1 51 3d
       0.40136194 -0.04398017 0.15495093 0.051179267
000060 0d 8b bd bd b2 a1 24 be cc 64 43 3d 0a 8f 89 be
       -0.092550375 -0.16077307 0.04770355 -0.26866943
000070 29 34 1b be d9 c4 0a 3e 8b 2f 52 3e d7 6d fd 3d
       -0.15156616 0.13551654 0.20525949 0.12374466
000080 11 cc 3b 3f 06 24 52 bc 6b ca b2 3c 0d 05 2d be
       0.73358256 -0.0128259715 0.021825036 -0.16896458
000090 25 aa 5c be 4f 54 26 be fb 6f 0f 3e c1 a6 2f 3f
       -0.2154928 -0.16243099 0.14007561 0.6861382
0000a0 cc 59 43 be 44 93 e9 3e 52 95 93 bd 7c 91 52 be
       -0.19077224 0.45620167 -0.07206215 -0.2056331
0000b0 93 bd a8 3d 3c c7 a1 be c1 d1 0a be 3a 0f 98 3e
       0.082392834 -0.31597316 -0.13556577 0.29699117
0000c0 eb bb 98 bd 10 93 46 bd b3 45 23 bd c3 ec 88 3d
       -0.074577175 -0.048480093 -0.039861392 0.06685784
0000d0 b8 d7 36 bf 0d 7a 2f 3f 90 71 5c bd c2 f8 02 be
       -0.7142291 0.6854561 -0.05381924 -0.12790206
0000e0 7f da 6a 3e b5 2a 58 be fd 38 03 be af 21 c2 be
       0.22934912 -0.21110041 -0.12814708 -0.37916324
0000f0 fc 88 cd bd 3f c5 44 bd c5 44 2c 3d bf 69 5a be
       -0.10035893 -0.04803967 0.04205777 -0.21329401
000100 f4 82 6d bd 10 79 0c 3e 66 f4 1f be ef 73 34 bc
       -0.057986215 0.13718057 -0.15620574 -0.011013969
000110 2c cb 2a be 9a 84 e1 bc 74 c8 bb 3e f2 97 3f 3c
       -0.16679066 -0.02752905 0.3667637 0.011693941
000120 ae 54 8f bd 52 46 31 bd 96 8d e0 3c 55 5d e8 bd
       -0.06998573 -0.043279953 0.027411263 -0.11345927
000130 1d 90 ff bd b5 18 a5 3d 46 46 d8 be ba e6 a7 be
       -0.12478659 0.08061353 -0.42241114 -0.32793218
000140 a3 96 1a be 84 78 05 be 4b 66 ca bb 65 0b f2 bc
       -0.15096526 -0.13034254 -0.006176745 -0.029546449
000150 72 14 05 3e 95 26 7e 3e e7 ef 02 be 15 19 69 3d
       0.1299608 0.24819405 -0.12786828 0.056908686
000160 43 09 89 3d 2b 1d 61 3d a5 46 a8 3c 12 50 8e 3d
       0.0669122 0.054959457 0.020541498 0.06948866
000170 c6 7d 34 bd d2 50 65 ba df 68 6e bb ff 8f 69 3b
       -0.04406526 -0.00087477 -0.0036378426 0.0035638807
000180 dc 73 e5 bc 9b 90 26 bd d0 58 07 3c 94 4e 31 bc
       -0.028009348 -0.04066525 0.008260921 -0.010821957
000190 80 e5 7f 3c 9b 45 e2 3b 40 ca d7 3c a1 aa d3 3c
       0.015618682 0.0069052703 0.026341558 0.025838198
0001a0 77 33 40 bc c3 d7 4b 3c d2 34 dc 3d bd 8b 9f bd
       -0.01173102 0.012441578 0.10752262 -0.07790325
0001b0 ef 38 08 bd 12 a6 8a 3c b6 94 a5 bd 70 fc 8f bc
       -0.03325742 0.016924892 -0.08085005 -0.017576426
0001c0 89 6e f4 bc 21 a2 61 bc c1 27 b7 ba d2 c4 85 3c
       -0.029837864 -0.013771565 -0.001397364 0.016329203
0001d0 1c ac c3 3b da f1 c3 be 7f 00 94 be 36 01 74 3e
       0.005971445 -0.38270456 -0.28906628 0.23828587
0001e0 f1 aa 5d 3c 57 fb 3b bd fe f4 d2 bd 7c a3 1d 3e
       0.013529525 -0.045893993 -0.10300635 0.15394396
0001f0 61 bc 25 3e 3a bd c3 3d e4 67 ea 3c 08 56 73 3c
       0.16185142 0.095575765 0.028613992 0.014852054
000200 5f 39 d6 bd 08 66 78 bc 6a ea a9 bc a7 f4 b4 bb
       -0.104601614 -0.015161045 -0.02074166 -0.005522329
000210 dc 67 03 3c 5f ea 25 bd 06 35 b1 3b f1 0e 1f 3c
       0.0080203675 -0.040506717 0.005407932 0.009708152
000220 77 a9 39 3d 9f 67 ab 3c fd 9c be 3c ab 0b a2 3c
       0.04532763 0.020923434 0.023268217 0.019780954
000230 d1 8e ae bb 77 fe 75 3c 1c f0 1f 3d ca b6 f0 bd
       -0.0053270836 0.015014282 0.039047346 -0.11753614
000240 dc 0c 7a bd 23 1b c9 bc 44 eb 9b 3d 8a 0a be 3e
       -0.06104742 -0.024549073 0.07613233 0.37117416
000250 94 19 a7 3e e5 28 c5 3d c6 78 db 39 b3 4f 05 3b
       0.32636702 0.09626941 0.00041860918 0.0020341694
000260 43 12 e9 bc bc 46 b8 3d bf 91 a6 bd 5f b6 1a bc
       -0.02845109 0.089978665 -0.081332676 -0.009442895
000270 53 a1 95 3c e1 03 c0 3d 2a 20 d3 3d 39 81 1a 3d
       0.018265402 0.0937574 0.10308869 0.037720893
000280 9a 60 e5 39 74 e0 44 be 06 04 4a 3b ea 27 5a 3c
       0.00043750257 -0.19226247 0.0030825152 0.01331518
000290 68 b5 3d bc 04 e5 e7 b9 7f fe ca bc 1d 0f 3e bb
       -0.011578895 -0.00044230383 -0.024779556 -0.0029000707
0002a0 5c 3d 55 bc 94 9c 80 3c e7 39 3c bd 63 50 7d be
       -0.0130151175 0.015699662 -0.045953657 -0.24737696
0002b0 e7 4b 1a 3e 08 6d f6 3c 8c dc 42 3a c6 08 fb bb
       0.15068017 0.030081287 0.0007433377 -0.007660958
0002c0 81 d3 35 ba b1 9a aa bc 57 a4 99 3c 92 fa 7b bc
       -0.00069361186 -0.020825716 0.018755121 -0.015379565
0002d0 80 d3 b6 b6 a4 12 4e bd d2 d5 09 3e 80 49 03 bd
       -5.4486445e-06 -0.050310746 0.13460472 -0.032052517
0002e0 fc 1b e0 bd cc 33 ff bd fb 00 b1 bb 2a 40 e6 bc
       -0.109428376 -0.12461051 -0.005401728 -0.028106768
0002f0 7a 7f 2b 3e a0 a4 19 3d 86 dc 82 3d b6 fc 76 b9
       0.16747847 0.037510514 0.06389718 -0.0002355453
000300 96 c3 b9 bc 89 ee 73 bc f4 3c 43 3d 3c c3 39 3b
       -0.02267627 -0.014888414 0.04766555 0.0028345129
000310 12 ce 4b 3d a4 85 f7 3d 13 e8 0b 3d 1a f2 e4 3d
       0.04975707 0.12086037 0.03415687 0.1117899
000320 56 10 16 be c8 a5 2d 3d 30 01 92 bc e7 84 c3 3d
       -0.14654669 0.04239443 -0.017822832 0.095468335
000330 ee 96 ab 3b 07 08 36 3c ad 64 b7 3d 0e 59 5a be
       0.005236498 0.011110312 0.08954749 -0.21323034
000340 24 ac 1a bd bf 8d e7 3d 95 ab bd ba 2b 0f 77 bc
       -0.037761822 0.11306333 -0.0014470691 -0.0150793
000350 48 8d d5 bb 96 2f 1a 3d df c9 34 3e 96 12 74 bb
       -0.006517086 0.037643038 0.17655133 -0.0037242523
000360 4c f3 f8 bb 5e a9 c0 bc 2b b2 79 bd 98 d7 30 bc
       -0.0075973626 -0.02351826 -0.06096093 -0.010793589
000370 90 2e 82 bb b3 ec 7f 3c b0 74 d1 bc 84 7d 06 bd
       -0.003972836 0.015620398 -0.025568336 -0.032834545
000380 eb 55 3a bd bb cd b4 bc 2d 09 d0 3c 41 d4 69 3d
       -0.045492094 -0.022070756 0.025395 0.057087187
000390 a2 98 6e 3d 94 4c c1 3d b1 1b 61 3c 42 0c f1 38
       0.05825103 0.09438434 0.013739512 0.00011494059
0003a0 f6 5e 88 bc d8 6c a4 3a 5e b5 d4 3d c9 62 fb 3d
       -0.016646843 0.0012544645 0.103861555 0.12274701
0003b0 2c 6d 37 3e 94 95 7c 3d 78 9f f9 bd 9c 8f a2 3d
       0.1791274 0.061666086 -0.121886194 0.079375476
0003c0 ef 3f 0f bd 91 06 9b 3d ae 3e 7e 3d 5d 3a 0b 3c
       -0.03497308 0.07569612 0.062071495 0.008497802
0003d0 0d c7 4f 3d 17 4e 6b 3d f3 4c 8e 3e 13 8f f3 bd
       0.05072694 0.05744752 0.27793083 -0.118925236
0003e0 5c fe 03 be be 62 e1 3d 02 41 89 3d 7f 6c d8 bd
       -0.12889999 0.11005162 0.067018524 -0.10567569
0003f0 c2 a5 27 3c fa 01 5b 3c fa 35 76 bd 74 b1 61 bd
       0.010232391 0.0133671705 -0.06011007 -0.055100873

rnn.rnn.weight_hh_l0 f4 [90, 30]
000000 cd 0c d6 3d 39 2b da 3e a8 a3 05 3f 02 99 b0 be
       0.1045166 0.426111 0.52202845 -0.34491736
000010 ec c2 0a bf eb d1 7a be f7 26 5c 3e e0 70 3f 3e
       -0.5420368 -0.2449414 0.21499239 0.18695402
000020 15 32 1c bf 03 08 76 3e 0d 44 99 3e 6b f5 cf bd
       -0.6101392 0.24026494 0.2993473 -0.10154232
000030 bd 9d 88 3f c7 29 8f be 7f 2d fe 3c 3f 7f dd 3d
       1.0673138 -0.2796156 0.031027554 0.10815286
000040 3f d1 94 3d 5e cc e8 bd c2 25 3c be e4 7d 98 bd
       0.07266473 -0.11367105 -0.18373778 -0.07445887
000050 a5 ff 64 3d bf 2c 97 be fe 6f 05 3d f1 05 3a 3e
       0.055907864 -0.29526326 0.032577507 0.18166329
000060 c6 e6 ee 3e 4c 14 b5 3e 6e f5 82 3d ae 16 b0 3e
       0.4666044 0.35367048 0.06394468 0.34392303
000070 5f f7 b0 bf 90 68 80 3f bd 04 48 3e 63 a0 87 be
       -1.3825492 1.003191 0.19533058 -0.26489553
000080 3d db eb bd 96 0c ad 3d fe 79 88 bf dc c0 b4 bd
       -0.11516426 0.08449666 -1.0662229 -0.088258475
000090 f2 5f 6e 3c b4 94 56 bb 06 78 29 be ee 2a 41 be
       0.014549242 -0.0032742443 -0.16549692 -0.18864033
0000a0 a5 ef 11 3f 6d e1 e9 3c cf d4 5f 3e f9 7a 83 bd
       0.57006294 0.028549874 0.21858524 -0.064199395
0000b0 37 be 6d 3e 8c 2a e0 be 1b be 1d 3c 9b 68 28 bb
       0.23217092 -0.4378246 0.009627844 -0.0025697115
0000c0 69 89 94 3d 42 ab 96 3e 6d 58 2a 3d b8 97 b8 be
       0.072527714 0.29427534 0.041588236 -0.36053252
0000d0 1b 87 82 bd eb 27 80 be 8d 5a 86 3e 1d cc 81 3f
       -0.063734256 -0.25030455 0.2624096 1.0140415
0000e0 06 93 a0 3e 23 fd 52 be df d5 32 3e b1 c4 35 bd
       0.3136217 -0.20604376 0.17464398 -0.044377033
0000f0 0a ac 58 be a9 4f 44 3e 56 5f dc be 71 b4 02 3e
       -0.21159378 0.19171013 -0.43041486 0.12764145
000100 a2 78 a6 3d d4 92 e3 3d d9 2a ff 3e c9 e6 17 bf
       0.08128478 0.111119896 0.49837378 -0.59336525
000110 2f 80 83 be 91 3f e3 bd 2e 24 d6 3b 05 4b 88 3e
       -0.25683734 -0.11096109 0.0065350747 0.26619735
000120 00 36 88 be 98 7b 79 bf d2 db 50 bd 9b c2 bd bd
       -0.266037 -0.97454214 -0.050990887 -0.09265634
000130 6c a8 d4 3c 2b 11 ba bd 8b be b5 3c bc 2d 60 bc
       0.025959216 -0.09085306 0.022185585 -0.013682779
000140 70 6c e1 be 4e 99 08 bf 59 72 99 be 0c f7 99 bc
       -0.44028044 -0.53358924 -0.29970053 -0.018794559
000150 1f 73 b1 be c2 0a 23 3e 1f 7f 1d be d0 8e 23 be
       -0.34658143 0.15922073 -0.15380524 -0.15972447
000160 83 5b c3 3e 2e 97 fb 3c d2 42 80 3d e2 ad c7 3d
       0.38155755 0.030711737 0.06262745 0.097499624
000170 34 7a 21 3f 69 fa 08 3f 6c 5e 3d bf c3 22 20 bd
       0.6307709 0.53507096 -0.739722 -0.03909565
000180 80 42 76 bd f6 7b b9 3e 04 d1 f1 bc 1d 6b fa bd
       -0.060122013 0.36227387 -0.029518612 -0.122274615
000190 03 9b 90 be 85 a0 0d 3f 2f 5a 68 be 18 a9 9e 3d
       -0.28243265 0.5532306 -0.22690652 0.07747096
0001a0 9d 04 9d 3d 28 e8 e3 3e 2c f3 e6 3e 12 26 88 3e
       0.076668955 0.4451306 0.451074 0.26591545
0001b0 1b 49 12 3e 2a 03 ac 3e 7e e4 09 3d ec e6 38 3f
       0.142857 0.33596164 0.033665173 0.7222736
0001c0 c7 e1 62 be 3e 01 fb 3e 1f 0d 02 bf 30 54 0c 3e
       -0.2215644 0.49024385 -0.5080127 0.1370399
0001d0 47 06 0d bd 4c f4 01 3f d0 a5 a3 bd b7 b6 2d 3d
       -0.034429815 0.5076339 -0.079906106 0.04241058
0001e0 e9 ab eb be 76 48 b9 bc 95 fb 17 be 73 e9 a1 be
       -0.46029595 -0.02261756 -0.14842065 -0.3162342
0001f0 f7 be 1d be dd f9 8e be f2 b4 fa 3d 6e 57 02 3f
       -0.15404879 -0.27925006 0.12241544 0.5091466
000200 48 af 06 be a4 0b ca 3d 1d 80 17 3f c7 8c 38 3d
       -0.13152802 0.098655015 0.5917986 0.04505613
000210 f7 5b c2 3e 91 08 1f be d4 50 1e bf 77 79 ba bf
       0.3796079 -0.15530612 -0.61842084 -1.4568318
000220 de d2 6e 3e fa 86 29 3f 5a a7 0a be 35 26 49 3d
       0.23322627 0.6622158 -0.13540402 0.049108703
000230 9e 7a fb be db 71 82 be 3b 86 e5 bd a4 67 cb bd
       -0.49116987 -0.2547749 -0.11207243 -0.09931877
000240 f7 cc 27 3f c8 d0 c1 bf d5 cf 93 3e 68 e8 a1 bd
       0.65547127 -1.514184 0.288695 -0.07905656
000250 20 a0 14 3e b4 fb bc bf f0 3d ef 3d 50 a6 07 3e
       0.14514208 -1.4764314 0.116817355 0.13247037
000260 73 ec dd 3d 7f f4 a0 3e 30 5c 41 3f 53 4f 98 3e
       0.10836115 0.31436536 0.7553129 0.2974802
000270 88 4f f7 bc 61 ac 2e 3e 6f 1c 5a bf 92 c3 98 3d
       -0.03018929 0.17057945 -0.85199636 0.07459177
000280 f6 a9 02 3c 10 12 ec be 84 3d 8f 3f 7e 68 8a bd
       0.007975092 -0.4610753 1.1190648 -0.067582116
000290 24 bc 01 3f f5 fc b2 bd 21 ec d0 3e 2e 5c 94 3e
       0.50677705 -0.08739654 0.40805152 0.28976578
0002a0 6a 08 85 3d 37 6c a5 be 07 b7 0b 3e ff a3 86 3f
       0.064957455 -0.32309124 0.13644038 1.0518798
0002b0 7c 43 17 3f b4 7b 11 3f 70 91 02 3e 0a 58 27 bf
       0.5908735 0.5682938 0.12750793 -0.6536871
0002c0 a2 d0 7d bf 58 d6 2b 3f 71 a3 59 bd ab 84 2a be
       -0.99146473 0.6712394 -0.053134385 -0.16652171
0002d0 da b9 43 bf d4 27 92 3e 2a 21 44 3f eb 95 b3 3e
       -0.7645546 0.2854601 0.76613104 0.35075316
0002e0 13 03 f4 3e e3 c9 08 bf e2 69 5c 3f 27 9a c9 be
       0.47658595 -0.53433055 0.86099064 -0.3937542
0002f0 40 24 0e 3f 91 a0 bf 3e 4e 13 3d bf 6e 5d 43 3e
       0.55524063 0.3742719 -0.7385758 0.1907861
000300 28 60 92 be c1 70 bb 3d 8e cf ba bd cf 7f 94 3e
       -0.28588986 0.091523655 -0.09121619 0.2900376
000310 c9 f3 f1 be c9 e3 03 be 70 63 47 bf 4e 4d 96 3c
       -0.47256306 -0.12879862 -0.77886105 0.018347409
000320 04 87 b3 3d 77 1e 23 bf 90 0b 98 3e c8 11 06 3f
       0.087659866 -0.6371836 0.2969632 0.5237088
000330 2f 1b d2 3e 25 6c d7 3e ee 37 b4 be 49 4e 1e 3f
       0.41036364 0.42074695 -0.3519892 0.61838204
000340 94 f5 33 bf 51 ce e2 3d a3 6c de 3e d8 49 84 be
       -0.702966 0.11074508 0.43442258 -0.25837588
000350 b3 35 22 bf f8 95 ec bd ce c5 8c be 25 fc 91 3e
       -0.6336319 -0.11552042 -0.27494663 0.28512684
000360 e6 ab 80 bd db 71 98 3f 43 b3 17 bf 09 33 56 be
       -0.06282787 1.1909746 -0.59257907 -0.20917906
000370 5b 83 8b 3e e5 a0 e5 3d 01 84 47 3d 66 95 a3 bf
       0.27248654 0.11212329 0.048709873 -1.2779968
000380 ba 34 84 3e 92 0b c6 3e 20 36 1b 3d 69 87 16 3e
       0.25821477 0.38680702 0.037893414 0.14700092
000390 0c b3 4d 3f 27 cb 07 3d ba 52 e9 3e 3b 2b fe 3d
       0.8035133 0.033152726 0.45570928 0.12410589
0003a0 08 f0 b8 be cc da 09 bd b1 d2 f5 3e 96 62 dc 3e
       -0.3612063 -0.033655927 0.48012307 0.43043965
0003b0 5b 43 43 be b2 a8 4f be 1f 5c f1 be 60 24 8d bd
       -0.19068663 -0.20279196 -0.47140595 -0.068917036
0003c0 fc 61 d7 3e 2c 6f 0e be d5 41 86 bc ee 50 84 be
       0.42066944 -0.13909596 -0.016388813 -0.25842994
0003d0 eb 3a 39 3e 08 77 b2 3e 6b 16 98 be a1 2a 4c 3e
       0.18088882 0.3485644 -0.29704604 0.19938137
0003e0 a6 a1 d0 3e 86 5c fc bd c3 54 a8 3e ee 78 45 3d
       0.40748328 -0.12322335 0.32877168 0.04821103
0003f0 57 50 70 be 8f 66 db 3e d4 97 70 3e ba 1c a1 3d
       -0.23468147 0.42851683 0.23495418 0.07866807

rnn.rnn.bias_ih_l0 f4 [90]
000000 7b 78 0d 3f 38 42 bd 3c 48 1f ce 3e bd c1 f0 3e
       0.55261964 0.023102865 0.4025824 0.4702281
000010 ee ca 96 3e 23 1d 26 bf 7e ad 44 3e 9f 93 e1 3e
       0.29451698 -0.6488821 0.19206807 0.44057938
000020 88 df 39 3e 0f 38 e6 3d c1 68 4b 3f 45 9d 42 3f
       0.18151677 0.11241161 0.79456717 0.76021224
000030 37 56 6b 3f fc c9 eb 3e 0c 2b 08 3f 52 e4 2c 3f
       0.9192843 0.4605254 0.53190684 0.6753589
000040 ac 11 fe 3d e4 d5 83 be 76 bc 3a be f5 65 cf 3e
       0.124057144 -0.25749123 -0.18235955 0.40507475
000050 d9 52 c5 3e 6a db 3d be 0e 3c d1 3d 68 69 b2 3e
       0.3853977 -0.18540731 0.10216533 0.34846044
000060 8c 4b dc bc d3 d5 cc be 61 50 1c be 4f 5e 66 3e
       -0.026891492 -0.40006885 -0.15265037 0.22496913
000070 2f 0f ae 3d ed af ad bd ca 77 11 bf 46 cc b2 3e
       0.0849899 -0.08480821 -0.5682341 0.34921473
000080 8f ec 18 3f 3a 8d c0 3d 53 41 2e bd f8 c6 8d 3f
       0.5973596 0.09401937 -0.042542767 1.1076345
000090 75 77 61 3e b0 78 47 3c f6 99 16 3e 4f 3a 79 3e
       0.22018225 0.01217477 0.14707169 0.24338649
0000a0 07 1a 94 3e 69 2b 2f bf f1 0d b4 3e 94 e7 0f be
       0.28926107 -0.68425614 0.35166886 -0.14053184
0000b0 f2 9f b5 be a0 e9 82 3e ed a2 e8 bd 10 3b 6d 3d
       -0.3547359 0.25568867 -0.113592006 0.057917655
0000c0 93 30 c2 3f 3f d0 95 bd a0 7a 39 3e 09 d5 34 3f
       1.5171074 -0.073151104 0.18113184 0.70637566
0000d0 80 57 16 3f 41 ad 2e 40 9e d4 e4 bc 2f dd a9 bc
       0.58727264 2.7293246 -0.027933415 -0.020735351
0000e0 40 c8 6c 3e 33 55 4a 40 e5 e7 eb 3d 1d ee b9 bd
       0.23123264 3.1614501 0.1151884 -0.0907862
0000f0 4f b4 22 bf e4 bb 9a be 38 58 06 3d cb 0d f9 bd
       -0.6355638 -0.30221474 0.032798976 -0.12160834
000100 56 3d 23 bf 06 13 d5 be 66 a8 ea 3e e5 8b 3d be
       -0.63765466 -0.41616076 0.45831603 -0.18510397
000110 0b 7b c1 be 3e 0b 80 be b2 ef a8 3e 4b 78 45 3f
       -0.37789187 -0.25008577 0.32995373 0.7713668
000120 78 25 97 3e a8 ac b8 be 76 fc e7 3e 5b 5d 01 be
       0.29520774 -0.36069226 0.453098 -0.12633269
000130 bf 6a 41 3f 5b 75 ce be 87 5d 9d 3e f8 cd 0e 3f
       0.75553507 -0.4032391 0.30735418 0.55783033
000140 30 09 db be f4 a9 8c be 2c ef 8c be a2 bc 91 be
       -0.42780447 -0.27473414 -0.27526224 -0.28464228
000150 e6 f4 fb 3e 1b fc 5f be 66 d1 6f be b6 91 15 bf
       0.4921028 -0.21873514 -0.23419723 -0.5842546
000160 45 30 03 bf 60 77 cf bd
       -0.5124553 -0.10130191

rnn.rnn.bias_hh_l0 f4 [90]
000000 07 d7 34 3f 0f 76 14 bd c7 f4 6c 3e 6d ab 03 3f
       0.70640606 -0.036245402 0.2314025 0.5143345
000010 74 e9 97 3d 39 61 12 bf ae 06 84 3e 2d d0 68 3e
       0.074175745 -0.571796 0.25786346 0.22735663
000020 e7 9a dd 3d f4 1a 7c 3e 4e 67 44 3f 8f 30 4c 3f
       0.10820561 0.24619657 0.7672013 0.79761595
000030 43 9f 70 3f 24 f1 87 3e 7b 6c c4 3e 30 28 f7 3e
       0.93993014 0.26551163 0.38364014 0.48272848
000040 10 ba dc bd 4f 22 a7 be c1 70 06 be 7c da 18 3e
       -0.10777676 -0.32643363 -0.1312895 0.14927095
000050 5f f8 ca 3e bd fc ee 3a 74 3f 3e 3d 5d 4c 18 3f
       0.39642617 0.0018233281 0.046447232 0.5949152
000060 34 53 86 bb e9 1b d0 be 75 ac 23 be ea ce 9b 3e
       -0.004099274 -0.40646294 -0.15983756 0.304313
000070 75 8c ae 3d 4e e8 55 be 64 cf 37 bf 65 59 28 3e
       0.08522884 -0.20889398 -0.7180083 0.16440351
000080 af 3d 86 3e 89 fb d3 bb 8b dd 1f be ee ab 81 3f
       0.26218936 -0.0064691943 -0.15611856 1.0130594
000090 e9 64 c9 3e 8e 49 df 3d a1 87 1a be 3c 4d a6 3e
       0.393348 0.10902701 -0.15090801 0.324808
0000a0 5d 96 99 3e 03 5a 29 bf 52 fd 91 3e 93 60 a5 bd
       0.2999753 -0.6615297 0.2851358 -0.08075061
0000b0 a3 59 ea be 82 7f f9 3d c6 be 13 3e a3 14 5a bd
       -0.45771512 0.12182523 0.14428243 -0.053242337
0000c0 b2 9f c7 3f d6 79 80 3e 92 0f 64 3e 6b ec 0e 3f
       1.559561 0.25092953 0.22271565 0.55829495
0000d0 a8 39 05 3f 73 e8 1b 40 43 bc ba bd b8 4a 72 3e
       0.520411 2.4360626 -0.09117939 0.23661315
0000e0 3e de 8c 3e 82 41 46 40 76 ad 8f 3d 6f 2f 1a 3d
       0.27513307 3.0977483 0.07015507 0.037642892
0000f0 f6 ce c0 bf cc 3a ef bd 72 f9 8e be d3 5d 78 3d
       -1.506316 -0.116811365 -0.27924687 0.060636353
000100 83 78 a4 be 90 3f b4 bd 86 33 7f 3f aa 50 0a bf
       -0.32123193 -0.08801186 0.99687994 -0.54029334
000110 d5 b8 9d be d9 c5 11 bf 3c d2 fc 3e 7a 98 eb 3f
       -0.30805078 -0.56942517 0.49379146 1.8405907
000120 fd 26 ee 3e 9b 07 c3 be ba 82 d6 3e 7f e0 ba be
       0.4651412 -0.3809174 0.4189661 -0.36499402
000130 a8 84 ec 3e c3 72 35 be 02 22 74 3e 5a 35 3f 3f
       0.4619496 -0.1771956 0.23841098 0.74690783
000140 37 6c c9 be 52 ed 35 be c9 c8 f2 be 7f 55 d7 bc
       -0.39340374 -0.17766312 -0.47418812 -0.026285885
000150 79 7d f7 3e 63 f9 09 be 50 2f 2f be c1 ef e3 be
       0.48337916 -0.1347404 -0.17107892 -0.44518855
000160 2b 34 86 bf 6e 6b 17 bd
       -1.048467 -0.036967687

rnn.fc.weight f4 [32, 30]
000000 de 19 64 3e 3a e3 7b be 60 9e 08 be f8 96 0c 3f
       0.22275493 -0.24598399 -0.13341665 0.5491786
000010 f9 f0 d4 3e f3 da 5d 3c c1 8b f1 bd d6 11 91 3e
       0.41590098 0.013540971 -0.11794234 0.2833392
000020 98 17 c5 3e 4a 64 8f be 38 9f fe be 02 75 90 3e
       0.38494563 -0.28006202 -0.4973085 0.2821427
000030 d5 42 22 3e 26 28 ae 3d 93 14 54 be 45 55 60 3c
       0.15845807 0.085037515 -0.20710973 0.013692205
000040 48 38 2c 3f 00 b5 f8 bb 1a d2 98 3e e0 f9 b9 3e
       0.6727338 -0.0075899363 0.29847795 0.36323452
000050 dd 75 fb 3e 22 e7 d2 3d 79 72 d2 be a1 ab 81 be
       0.4911336 0.10297991 -0.4110296 -0.25326255
000060 e2 0f 10 be 4b a5 e9 be a0 c7 8e 3d 2c 0e d3 be
       -0.14068559 -0.4563392 0.06971669 -0.4122175
000070 6f 89 02 3f 17 44 92 be 0e 3d c2 bd 4c f5 67 3d
       0.5099096 -0.28567573 -0.094843015 0.056630418
000080 92 51 fd 3d cd 47 af be d4 2e 4d 3e d3 20 bd 3e
       0.12369074 -0.34234467 0.20037395 0.36939105
000090 49 37 d3 be eb 93 2f 3d d8 71 d2 3c 63 a6 45 be
       -0.41253117 0.042865675 0.02568905 -0.19301753
0000a0 ab 0d 84 be 07 71 b5 3e 90 b6 50 be f8 d2 80 3b
       -0.25791678 0.35437796 -0.20382142 0.0039313994
0000b0 25 ff 09 be 30 44 bc 3d 64 28 0d bf ae a4 d3 3e
       -0.13476236 0.09192693 -0.55139756 0.41336578
0000c0 21 e5 83 3d 24 59 8b 3e c9 f9 f7 3d 45 6c 47 3e
       0.06440187 0.27216446 0.121081896 0.19474895
0000d0 47 0c 81 be 21 14 cc be f1 83 4c be dc 6b 2d 3f
       -0.2520468 -0.39859107 -0.19972207 0.67742705
0000e0 4c 56 b6 3e 69 01 fd bd 66 71 ca 3d 97 a1 08 3f
       0.35612714 -0.123537846 0.0988491 0.53371567
0000f0 38 39 5c 3e 7a 5e 2c bc 81 d0 91 bd 2b a7 1b bf
       0.21506202 -0.010520572 -0.07119847 -0.60801953
000100 d1 f7 b2 bd 62 1c 21 3e 2a ac e8 bd f6 7f 95 3d
       -0.087386735 0.15733483 -0.11360963 0.07299797
000110 f5 6e e9 3e ff d7 51 3c f2 cb 67 3d 86 b4 c7 3e
       0.45592466 0.012807845 0.05659098 0.39004916
000120 15 6b b7 be 33 8a dd be da 71 4b be 87 99 f2 3c
       -0.35823885 -0.432695 -0.1986765 0.029614223
000130 d4 47 2b bf c7 85 99 3e 59 db dc bd 56 e6 e1 3d
       -0.66906476 0.29984877 -0.10784025 0.11030261
000140 58 5d 3d 3e 99 32 2f 3e ee 34 3a bd 3c be 05 bd
       0.18492639 0.17109145 -0.045460634 -0.032652125
000150 08 e5 ab be 06 c5 bc 3e 28 9d 46 3e 89 d6 ea be
       -0.33573174 0.36869067 0.19395888 -0.45866802
000160 5b c5 b7 bc 60 8a bf 3e 78 8b cc 3e 07 a2 b5 be
       -0.022432974 0.3741026 0.39950156 -0.3547518
000170 83 e3 c4 3e a1 3d bb 3e d4 34 69 3e 71 04 7b 3e
       0.38454828 0.36570457 0.22774059 0.24513413
000180 9d c7 d9 bd 12 06 b7 3e 44 f4 ab 3e cd 76 a7 be
       -0.10633776 0.3574682 0.33584797 -0.32707825
000190 b1 22 35 bd e9 73 b4 3e 82 3c 7d be 00 67 ca 3e
       -0.044222537 0.35244682 -0.24730113 0.39531708
0001a0 0e c9 83 be 9b 3c 55 3e e8 f2 ba 3d 59 7c 8a 3e
       -0.2573933 0.208239 0.09128362 0.27047995
0001b0 67 1e ed 3e 27 cd 03 3e 0d 78 dc 3d 88 ef 33 3e
       0.46312258 0.12871228 0.10765085 0.17571843
0001c0 53 70 39 be 34 25 9a be a4 aa 62 be b3 c4 3b 3e
       -0.18109255 -0.3010651 -0.22135407 0.18336754
0001d0 01 5f b2 3e 95 3d e8 be 71 67 b6 3e 50 e4 ed bc
       0.34838107 -0.45359483 0.35625795 -0.029039532
0001e0 df a7 99 be 66 f7 89 3e 29 e7 8b be b5 a7 e9 be
       -0.30010888 0.26946563 -0.273248 -0.45635763
0001f0 29 4e 0e be 84 01 5e 3e 69 a1 1e be f5 3c 74 be
       -0.13897003 0.21680266 -0.1549126 -0.23851378
000200 4e 4a e3 3d 37 94 6d bd 47 ca 46 3c 70 97 95 3d
       0.11098157 -0.058002677 0.012133188 0.07304275
000210 21 11 af bc 75 a1 a5 be 87 75 d1 be c0 d1 01 bf
       -0.021370472 -0.32349744 -0.4090998 -0.5071068
000220 03 4e 75 be 23 fa 09 3e 3c d8 db 3c 5b 10 f8 bd
       -0.2395554 0.13474326 0.026836507 -0.121124946
000230 b8 6d fa be bc 9d c9 bd a3 9c 9e be 1f a3 77 be
       -0.48911834 -0.098445386 -0.3097888 -0.2418332
000240 6f 01 bd 3d 30 aa 18 be 3a 51 1f 3e a7 98 50 be
       0.09228789 -0.14908671 0.15558329 -0.20370732
000250 41 cb 30 bd 44 bb d9 3e 97 98 67 3e 4f 62 e6 3e
       -0.043162588 0.42525685 0.22616802 0.44996879
000260 ec 1e ec 3e 6f 0b 38 3f 08 4b 8d be 69 9e b2 3d
       0.46117342 0.71892446 -0.27596307 0.087216206
000270 ec 2a ca 3d aa 56 a7 3e c9 a4 0f bf cb e6 6f 3e
       0.09871468 0.32683307 -0.5611082 0.23427884
000280 b6 e2 e8 3e 5b 54 d1 be 1a 10 56 3e 8d aa 17 bf
       0.45485467 -0.4088467 0.2090458 -0.59244615
000290 8c 82 87 bd 29 bb 10 bf 3d ac 10 bd 65 46 c9 be
       -0.06616697 -0.56535584 -0.03532051 -0.3931152
0002a0 d4 a4 e7 3d f3 80 a4 be 7c bb 92 bf 79 fd 1e be
       0.11310735 -0.3212963 -1.1463466 -0.1552638
0002b0 29 8f 87 3e b8 4f 50 be 5c 3e a1 3e af df 93 be
       0.2647641 -0.2034291 0.3149289 -0.28881595
0002c0 21 5c a0 3d ae 21 19 3d 22 8a 88 3f 72 7e 56 bf
       0.07830072 0.037385635 1.0667155 -0.8378669
0002d0 17 80 89 3d 30 df 79 be 6d 2a e6 bd 1a 81 26 3d
       0.06713884 -0.24401546 -0.11238561 0.040650465
0002e0 19 7b 51 3e 7f 54 10 3e 35 0e 76 be 34 b6 f4 3d
       0.20457114 0.14094733 -0.24028857 0.11948815
0002f0 fc 20 20 3f c0 aa ec bd 19 ed b3 be 41 89 81 3e
       0.6255033 -0.115560055 -0.3514183 0.2530003
000300 55 9f 66 be 25 47 6a 3e 8a b2 db be dc fb 96 3e
       -0.22521718 0.22878702 -0.42909652 0.29489028
000310 79 fa 7a be 42 12 87 3e 08 cc 84 3e f7 40 c8 3e
       -0.2450961 0.26381117 0.25936913 0.39112064
000320 7b ef ea 3e 06 3d 86 3e 69 fd 94 be 78 33 f3 be
       0.45885834 0.26218432 -0.29099587 -0.47500205
000330 f5 31 a1 be a0 08 d8 3e 21 e8 4b 3e ad b8 62 be
       -0.31483427 0.4219408 0.19912769 -0.2214076
000340 aa a2 d6 3e bc c2 8e 3e f5 d2 52 bd ea 59 92 3c
       0.41920978 0.27882946 -0.051470716 0.01786514
000350 c8 35 fa 3b 71 8b 4b bf 03 48 f8 be 1c 83 89 be
       0.0076358058 -0.79509646 -0.4849244 -0.2685784
000360 ba 5d f2 ba eb 52 b9 3e 33 29 03 be 26 d6 a7 3e
       -0.0018491067 0.36196074 -0.12808685 0.3278057
000370 e4 a8 d0 bd fd 64 8c be 49 bb 20 3e da 22 82 3e
       -0.10188463 -0.27420798 0.15696444 0.25417215
000380 78 28 a5 be 8c c0 32 be 97 af 7b bf 1a 0f ff 3c
       -0.32257438 -0.17456263 -0.98314804 0.03113513
000390 88 a7 8f 3d a3 ae fb be 5d e6 9e be ab de 76 bd
       0.07014376 -0.49156675 -0.31035128 -0.060270946
0003a0 1c bf aa 3e 20 c0 ad 3e 86 24 48 3d d3 69 ef 3e
       0.3334893 0.33935642 0.048862956 0.46760425
0003b0 1b 54 f6 bd 04 f0 13 3f c1 c1 3b 3c 53 17 4f 3f
       -0.120277606 0.5778811 0.011459769 0.80894965
0003c0 5f 90 67 be 25 6c df bd f8 a1 08 bf 16 1e 83 bd
       -0.22613667 -0.10909299 -0.53372145 -0.06402223
0003d0 ba 97 d7 be e1 cf 97 3a 27 36 dd 3c 71 9f 91 be
       -0.42107946 0.0011582338 0.02700336 -0.28441957
0003e0 02 9b 0f 3d 3f 20 ac 3d 55 5a e4 3d 21 82 05 3c
       0.035059936 0.08404588 0.11150042 0.008148701
0003f0 31 29 42 bd ca 91 49 be cd 54 0c 3f ca 3c 47 3e
       -0.047402564 -0.1968452 0.54816896 0.19456783

rnn.fc.bias f4 [32]
000000 da 13 8f 3c 73 e1 4e 3e 60 f9 d5 bd 92 8a aa 3d
       0.01746552 0.2020319 -0.10447955 0.083272114
000010 4c a3 1b be 92 d1 ef 3e d8 ca 45 3d 03 14 19 3f
       -0.15199012 0.46839577 0.04828915 0.5979616
000020 4c 5f 64 bd f3 cf 87 be e1 3a 49 bd 6c 6f b6 be
       -0.055754945 -0.2652584 -0.049128417 -0.35631883
000030 ef 2e a2 bd ea 71 8b 3e b3 6e 6e be 30 48 c2 bd
       -0.07919108 0.27235347 -0.23284416 -0.09486425
000040 a1 4e 2d bf 7a b4 24 40 93 dc 0b bd 43 91 14 3e
       -0.67698103 2.5735154 -0.034145903 0.14508538
000050 b1 42 8a be 49 e4 eb be 4b 0b 95 be c1 fe f6 bd
       -0.27004007 -0.46072605 -0.29110178 -0.12060309
000060 b8 63 08 3e 9a 09 fa be 89 44 4a be 12 45 15 3e
       0.1331929 -0.4883545 -0.19752707 0.1457713
000070 47 24 bb 3d 84 6e 41 3e f7 c0 6c 3e cc 28 5c 3d
       0.09137779 0.18889815 0.23120485 0.053749844

rnn.fc_mean.weight f4 [3, 32]
000000 3b 9c 1d 3f 8a 07 a5 be 8d 1d 32 bf cb a5 07 3f
       0.61566514 -0.32232314 -0.6957634 0.52987355
000010 23 e6 c5 bd 34 d4 23 bf f0 13 b5 be ee 86 62 3f
       -0.09663036 -0.6399567 -0.35366774 0.88487136
000020 21 88 63 3f 5d 4b 83 3f 84 ca 8e be 44 7d fa be
       0.8887959 1.0257374 -0.27888882 -0.48923695
000030 fb ff 6c bf 6f 98 a8 be f1 1a c1 3e e2 fb f2 be
       -0.92578095 -0.32928798 0.37715867 -0.47457796
000040 b2 99 85 3f 3d 3d 68 bd df 80 bf be 51 df 0e 3f
       1.0437529 -0.056699026 -0.37403008 0.55809504
000050 51 26 ca 3e 69 15 50 be da 07 2a bf 6a d2 2f 3f
       0.39482358 -0.20320667 -0.6641823 0.6868044
000060 b4 c7 ce be 05 16 0c 3f b5 0d ab 3d 28 79 5a bd
       -0.40386736 0.547211 0.08352224 -0.0533382
000070 8b 5f 94 be aa 73 97 3d 79 fb 1e bd 80 f4 2f 3e
       -0.28979144 0.07395108 -0.03881404 0.17183113
000080 26 b2 3e 3f 76 ab f8 be b2 1a 18 bf ad ad a4 3e
       0.7449058 -0.48568314 -0.59415734 0.32163754
000090 9c 94 c5 be 04 77 2f 3f 38 ac 60 3d 3a 53 ac 3f
       -0.38589942 0.6854098 0.05485174 1.3462899
0000a0 29 84 88 bf c1 65 9e bf 9c 05 ed be 6a f6 0c 3f
       -1.0665332 -1.2374803 -0.46293342 0.550635
0000b0 c5 e8 4e bf 1d e5 83 be 1d d9 dd 3c 5a 43 07 bd
       -0.8082393 -0.25760737 0.027081067 -0.033023216
0000c0 4f cb 66 3f 05 89 19 be 9d 44 66 be fb 4a c7 3e
       0.90153974 -0.14993675 -0.22487111 0.38924393
0000d0 c5 6a c7 be 0c 95 a7 bf ba f2 e3 be 3f 9e c2 3e
       -0.38948646 -1.309236 -0.44521123 0.38011357
0000e0 73 f6 9d be 51 56 85 3f e8 d7 2d 3f d9 7d 68 3b
       -0.30852088 1.0416967 0.6790757 0.0035475402
0000f0 00 08 22 3f de d6 ba bb 96 00 fa bc bd 44 6e 3f
       0.6329346 -0.0057018837 -0.030517858 0.93073636
000100 bb bb bc 3d 7d 23 23 3e 35 15 5f 3e 24 61 c6 3e
       0.09215494 0.15931506 0.21785434 0.38745987
000110 9d ba 48 be 5b 26 1e 3c a8 ef dc 3e b1 c9 e5 be
       -0.19602437 0.009652699 0.43151593 -0.4488044
000120 b0 5c ab 3d 25 2e cf 3e be cf 36 3e 45 c6 b0 bd
       0.08367288 0.40464893 0.17852685 -0.08631567
000130 34 28 49 3f 25 b7 9d 3e af 4e b4 3e 2c 25 90 3e
       0.7857697 0.3080379 0.3521628 0.2815336
000140 1f c2 a8 bd 03 ce 19 bf b7 c9 c9 3e ba d9 da 3e
       -0.08240151 -0.60079974 0.3941171 0.42744237
000150 6e 19 cf bc 15 35 c9 bc a8 4b 4e 3e ac 8f 9e 3e
       -0.02528068 -0.024561444 0.20146048 0.30968988
000160 80 ff db 3e 3b 40 1d 3e 27 4c 1d be eb 30 d2 3e
       0.4296837 0.15356533 -0.15361081 0.41052946
000170 41 6b 9c bc c3 4f b0 3e 41 64 d0 3e 19 1e 7a 3f
       -0.019094111 0.34435853 0.40701488 0.97702175

rnn.fc_mean.bias f4 [3]
000000 f9 df 50 be 61 6c 95 3e 4c 55 4d 3d
       -0.20397939 0.2918425 0.050130174

rnn.fc_vars.weight f4 [3, 32]
000000 8d 9e 21 3e 97 89 67 3d d7 78 33 3e 24 92 e7 3d
       0.15783139 0.0565277 0.17526565 0.11307171
000010 0a 90 05 3f 97 98 42 3f be 6c 05 3e 4a 01 87 3f
       0.5217291 0.76014084 0.13029763 1.0547268
000020 15 7c 6c bf f3 05 86 be 82 c7 51 3d 94 0d c5 3e
       -0.92376834 -0.26176414 0.051215656 0.38486922
000030 93 7e 15 bf 21 d6 c3 3e 4b c0 23 3e fb f6 86 3e
       -0.5839626 0.38249305 0.15991323 0.26360306
000040 05 dc 90 be d5 24 30 40 ba 08 a2 3e 68 72 d2 3d
       -0.28292862 2.752248 0.31647283 0.102757275
000050 80 e7 82 3f 8f 7c cf bd 89 51 27 3e 11 c8 62 3e
       1.0226898 -0.101311795 0.16339697 0.22146632
000060 87 03 ae 3e fc 13 6a bd 24 c8 a7 3e 4f f2 6f 3e
       0.33987066 -0.057147965 0.32769883 0.23432277
000070 42 89 54 3e d6 e6 10 3e d6 1e 33 3e ef cd 46 bf
       0.20755485 0.14150557 0.17492232 -0.7765798
000080 c9 8d a6 3e 42 86 d3 3e de 4d d1 3e 8f da e0 3e
       0.32530048 0.41313368 0.4087972 0.43916747
000090 02 fb 99 3f e7 83 9e 3f db 82 e8 3e 7b 18 b5 3f
       1.2029727 1.2384003 0.45412335 1.4148096
0000a0 b7 25 24 3e 69 1e b3 be 33 e3 10 3e 3e 8f 8b 3f
       0.16030012 -0.3498414 0.1414917 1.0903089
0000b0 37 38 50 bf 98 1c a6 3e e0 ea 97 3e 38 83 7f 3e
       -0.8133578 0.3244369 0.29671383 0.249524
0000c0 36 84 9e bf 52 64 34 40 0c fd 9b 3e bb a6 9e 3e
       -1.2384098 2.818623 0.30466497 0.3098658
0000d0 91 78 d5 3f 81 b5 b5 be ae e3 18 3e 79 24 f4 3e
       1.6677419 -0.3549004 0.14930603 0.47684076
0000e0 2d c2 96 3e ef b2 cb bc 5d 67 ab 3e 82 61 c3 3e
       0.2944502 -0.024865596 0.33477297 0.3816033
0000f0 6e c1 d3 3d 23 42 b9 3e 79 10 49 3e 50 76 8a bf
       0.10339628 0.3618327 0.1963519 -1.0817356
000100 f0 ed b5 3e 5c 1b d7 3e a6 e2 01 3f 21 c7 d9 3e
       0.35533094 0.4201306 0.50736463 0.42534736
000110 b3 fc 86 bf 7b fd ba 3f 56 19 61 3e 5e d5 2d 3f
       -1.0545868 1.4608606 0.21982321 0.679037
000120 11 10 3a bf dc 23 64 bf 47 a7 e8 3e d1 1e 98 bf
       -0.72680765 -0.8911722 0.45440122 -1.1884404
000130 9c 69 34 bf 7a ab d7 3e f5 fa 47 3e 57 e2 95 3e
       -0.7047365 0.42123014 0.19529326 0.29274246
000140 af e4 91 3e 7c 65 c4 40 34 1e 8f 3e 73 c7 23 3e
       0.28494784 6.137388 0.2795273 0.15994053
000150 81 a4 76 3d a3 9d 9a 3f a9 a3 c3 3e 45 9c b3 3e
       0.060215477 1.2079357 0.382108 0.35080162
000160 df 6d 71 3e ba 1f c8 3e cc 6f 23 bd d8 ac ba 3e
       0.23577069 0.39086705 -0.03990154 0.36459994
000170 49 4d 8c 3d 1f c5 90 3e 45 70 8c 3e b9 47 42 bf
       0.068506785 0.2827539 0.27429405 -0.7589069

rnn.fc_vars.bias f4 [3]
000000 ff 86 c9 3e 0b 5f 7f 3e 9e d5 1a 3e
       0.39360806 0.249386 0.15120551
