models/LorenzSSM_danse_opt_gru_m_3_n_3_T_1000_N_500_sigmae2_-10.0dB_smnr_30.0dB/danse_gru_ckpt_epoch_671_best.pt (torch, 20799 bytes, 10 tensors)

rnn.rnn.weight_ih_l0 f4 [90, 3]
0	0xbd07d7e2	-0.033164866
1	0xbd1527ca	-0.0364149
2	0xbe3e957b	-0.1861171
3	0xbed98b79	-0.42489222
4	0xbed414f6	-0.41422242
5	0xbe84177d	-0.2579917
6	0x3df06682	0.11738302
7	0x3dfd17a4	0.12358025
8	0x3e261595	0.1621917
9	0x3e27cd2a	0.16386858
10	0xbc9a06fb	-0.018802157
11	0x3da8f727	0.082502656
12	0xbe1c5039	-0.15264978
13	0x3e9ee2e8	0.3103249
14	0x3dde8159	0.10864515
15	0x3dc55ca6	0.09636812
16	0x3ec1448f	0.3774762
17	0x3da8acf2	0.08236112
18	0xbe63b78d	-0.22237988
19	0xbd789a46	-0.060694
20	0x3e26821c	0.1626057
21	0xbe3f375b	-0.1867346
22	0xbe4d16bc	-0.20028204
23	0x3d901df9	0.07036967
24	0x3e8d4e83	0.27598962
25	0x3e48cc53	0.19609194
26	0xbe902c76	-0.2815892
27	0xbde89533	-0.113565825
28	0xbd01e5bf	-0.031713244
29	0x3e4b0ce7	0.1982914
30	0x3e82ca5d	0.25545016
31	0x3d3ef2a2	0.04661811
32	0xbd866c4f	-0.06563627
33	0x3e1f0d6f	0.15532468
34	0x3dd85c01	0.10564423
35	0xbe420a7e	-0.18949315
36	0x3f2887cc	0.6583221
37	0x3edf272b	0.4358457
38	0x3e02fbad	0.12791319
39	0xbd371d26	-0.044705532
40	0x3e070012	0.1318362
41	0x3e500b76	0.20316872
42	0x3d0d6cce	0.034527592
43	0xbd91d595	-0.07120816
44	0x3e5c1d2c	0.21495503
45	0x3ebbd2b4	0.3668419
46	0xbd8cec76	-0.06881039
47	0xbe126bfd	-0.14299007
48	0x3e3bdf21	0.18346836
49	0x3df00b43	0.11720898
50	0x3d97a45a	0.074043944
51	0xbd0f7f5e	-0.035033576
52	0xbe741913	-0.2383769
53	0x3dc11caa	0.09429295
54	0xbe7e11ce	-0.2481148
55	0xbe08b794	-0.1335128
56	0x3d8dde35	0.06927148
57	0xbdb6b16b	-0.089205585
58	0x3d4772bd	0.048693407
59	0x3e71eef6	0.23626313
60	0xbe2fc2f5	-0.17164214
61	0xbe218d0b	-0.1577646
62	0x3e2ac9b5	0.16678508
63	0x3f16ec20	0.5895405
64	0x3e2357f9	0.15951528
65	0xbd6ec4b8	-0.058293074
66	0x3d14be10	0.03631407
67	0xbe2e7658	-0.17037332
68	0xbc9dabe7	-0.019247008
69	0x3e27f23c	0.16400999
70	0x3e0ab2f1	0.13544823
71	0xbc132a55	-0.008982261
72	0x3ed62d8c	0.41831625
73	0x3e98c4e4	0.29837716
74	0xbe60205c	-0.21887344
75	0x3ec7afac	0.39001215
76	0x3e129b70	0.14317107
77	0x3f0140c6	0.5048946
78	0xbe5da663	-0.21645503
79	0xbdaffcac	-0.08593115
80	0xbe0a4526	-0.1350294
81	0xbe2aea95	-0.16691048
82	0xbdd1eeb9	-0.10250611
83	0xbe04fae5	-0.12986334
84	0x3e696a21	0.22794391
85	0x3dd68739	0.104750104
86	0xbcecc7ee	-0.028903928
87	0x3eb83691	0.3597913
88	0x3d0154dc	0.03157507
89	0xbdeed04c	-0.11660823
90	0xbda41475	-0.08011714
91	0xbda54822	-0.08070399
92	0xbe18b039	-0.14910974
93	0x3c87fa60	0.01659888
94	0xbd6b2c32	-0.057415195
95	0x3c455688	0.012044556
96	0xbeeb9d7f	-0.46018597
97	0x3e2b90d8	0.16754472
98	0xbf384a94	-0.719888
99	0xbb50b3f2	-0.0031845537
100	0xbb8a8c05	-0.0042281174
101	0x3cccac64	0.024984546
102	0x3da02d81	0.07821179
103	0x3c29156c	0.010320049
104	0xbd93e6b1	-0.07221735
105	0x3dbbeeba	0.09176393
106	0xbc7ab96c	-0.015302997
107	0xbc03fe8c	-0.008056294
108	0xbdbddf37	-0.092710905
109	0xbdbbb5d8	-0.09165543
110	0xbdabb9ed	-0.08385072
111	0x3cde0350	0.027101189
112	0xbd43507a	-0.04768417
113	0x3b9b2d35	0.0047356137
114	0x3eabe02b	0.33569464
115	0x3e7da4c8	0.2476989
116	0x3dcc6795	0.09980694
117	0xbe5bc502	-0.21461871
118	0xbe8b38a5	-0.27191654
119	0x3e356d64	0.1771751
120	0x3c53e1b6	0.012932232
121	0x3dd995bd	0.106242634
122	0x3e5d6bf1	0.21623208
123	0x3e9afb38	0.3026979
124	0x3f27c343	0.6553232
125	0x3ed82af7	0.4222028
126	0x3b7b06ad	0.003830354
127	0x3d90cd8a	0.070704535
128	0xbdd0961d	-0.10184882
129	0xbd06a3ff	-0.032871243
130	0x38ae2fc8	8.3058665e-05
131	0x3c185e6b	0.009299855
132	0xbe28e9dc	-0.1649546
133	0xbe10cfa6	-0.14141712
134	0xbdb3d7ab	-0.0878137
135	0x3d5f2dc1	0.054486994
136	0x3dcf8b05	0.10133938
137	0xbc935feb	-0.017990073
138	0xbcb53ca5	-0.022123644
139	0x3cfb60c0	0.030685782
140	0xbd47b372	-0.048755117
141	0x3f15cad2	0.58512604
142	0xbf056446	-0.5210613
143	0xbeeb51a8	-0.45960736
144	0xbcddbf68	-0.027068809
145	0xbda202c9	-0.079106875
146	0xbcd2ed6c	-0.025747977
147	0xbeb5e680	-0.3552742
148	0x3eccb306	0.39980334
149	0xbddb44a1	-0.10706449
150	0xbd6e96d2	-0.058249302
151	0x3b67aa4b	0.0035349305
152	0xbd0e453b	-0.034733992
153	0xbd33efda	-0.043929912
154	0xbd068878	-0.03284499
155	0xbd3b1bb5	-0.04568072
156	0x3e3531f4	0.17694837
157	0x3e595fd5	0.21227963
158	0x3d6c12c1	0.057635073
159	0xbd117282	-0.035509594
160	0xbc1a6b51	-0.009425
161	0x3c786d5a	0.01516279
162	0x3c775062	0.015094848
163	0x3d09231c	0.03348075
164	0xbc16a7e2	-0.0091953
165	0x3d025e82	0.03182841
166	0x3d48483a	0.048897006
167	0xbab6ffa1	-0.0013961681
168	0x3d0b1b4c	0.03396158
169	0xbc982a5f	-0.018574892
170	0x3c7ebe74	0.015548337
171	0xbd3b9105	-0.0457926
172	0x3d1b72a4	0.037951127
173	0xbcb3a35a	-0.021928478
174	0x3da264a1	0.0792935
175	0x3d1f9f76	0.038970433
176	0x3cb7da37	0.02244292
177	0x3c9f54d3	0.019449627
178	0x3d115d56	0.035489403
179	0x3adaf1b2	0.0016704111
180	0x3e08f5ad	0.13374968
181	0xbd5c6e98	-0.053816408
182	0xbd74583d	-0.059654463
183	0x3ddad497	0.106850795
184	0xbe129f7f	-0.14318655
185	0xbd92e8bb	-0.07173296
186	0x3d069396	0.032855593
187	0xbd11165b	-0.03542171
188	0x3d5f43db	0.05450807
189	0x3e3980a7	0.18115483
190	0x3daaa173	0.08331575
191	0xbdf55597	-0.119792156
192	0x3d0bfa4d	0.034174252
193	0x3c263da0	0.0101465285
194	0x3e2f5a0c	0.17124194
195	0x3e0b81a7	0.13623677
196	0x3e0f7030	0.1400764
197	0xbc53d056	-0.012928089
198	0xbdd24160	-0.102663755
199	0xbcb07c7d	-0.021543736
200	0xbe763d8e	-0.24046919
201	0x3d7dd8d4	0.06197436
202	0xbc82b466	-0.015955161
203	0x3dc95158	0.09829968
204	0xbcd6263f	-0.026141284
205	0xbdcc4a8b	-0.099751554
206	0x3dcd93c0	0.10037947
207	0xbe5465f2	-0.20742014
208	0xbdfc5655	-0.12321154
209	0x3d6222f9	0.055209134
210	0x3e0e3c05	0.13890083
211	0xbd546548	-0.0518544
212	0xbe0336b9	-0.12813844
213	0xbae0e94b	-0.001715937
214	0xbd0e3d92	-0.034726687
215	0x3d4aa1af	0.0494706
216	0x3d2765c9	0.040868554
217	0xbcc2091a	-0.02368598
218	0xbe20367f	-0.15645789
219	0x3d70f06e	0.05882304
220	0x3d79eb98	0.061015695
221	0x3e0bfda8	0.13670981
222	0xbdadd7bd	-0.084884144
223	0xbd4985be	-0.049199812
224	0xbd728dc1	-0.05921722
225	0x3d4b8018	0.049682707
226	0x3dd04baf	0.101706855
227	0x3cd6823e	0.026185151
228	0x3e6f17db	0.23348944
229	0xbd373d93	-0.044736456
230	0xbd50cd56	-0.050977074
231	0xbd09b83b	-0.03362296
232	0x3cee2e63	0.029074853
233	0x3db9d48d	0.09073744
234	0x3da4c778	0.08045858
235	0xbc09d482	-0.008412482
236	0x3e020177	0.12695871
237	0x3de13afa	0.10997577
238	0x3d9a8ee2	0.07546784
239	0xbd9578df	-0.07298445
240	0xbce45416	-0.027872127
241	0x3e3dac89	0.18522848
242	0x3db63c08	0.08898169
243	0x3e1b84dd	0.15187402
244	0xbe01f09f	-0.12689446
245	0x3d3f8520	0.046757817
246	0x3dfca7dc	0.12336704
247	0xbdc1186d	-0.09428487
248	0xbe38eb27	-0.18058454
249	0xbd73936c	-0.059466764
250	0xbc66cde8	-0.014087178
251	0xbe1cea14	-0.15323669
252	0x3d3dc862	0.046333678
253	0x3dadabc3	0.084800266
254	0xbcc021b8	-0.023453578
255	0xbd5bb2c3	-0.053637277

rnn.rnn.weight_hh_l0 f4 [90, 30]
0	0xbeadf574	-0.33976328
1	0x3ea5ee37	0.32408306
2	0xbf1813df	-0.5940532
3	0x3d41ce1c	0.0473157
4	0x3ea99d33	0.33127746
5	0xbee7f5eb	-0.45304808
6	0x3e41b8fd	0.18918224
7	0x3c1303f0	0.008973107
8	0x3dc409f0	0.09572208
9	0x3f0a47f9	0.5401607
10	0xbd318846	-0.04334285
11	0x3e305bc7	0.1722251
12	0xbd308996	-0.043099962
13	0xbecc8a29	-0.39949158
14	0x3f03d643	0.5149881
15	0x3c625530	0.013814256
16	0x3e6ca6ac	0.23110455
17	0xbf00036f	-0.5000524
18	0xbd2c9d26	-0.042142056
19	0xbd3610c3	-0.04444958
20	0xbf65aa89	-0.8971334
21	0x3dedda9f	0.11613964
22	0x3b55180b	0.0032515551
23	0x3f0f6422	0.56012166
24	0xbd0c6dcf	-0.03428441
25	0xbf07df91	-0.5307551
26	0xbf189588	-0.59603167
27	0xbe993e66	-0.2993042
28	0x3dee3264	0.11630705
29	0x3e4aba32	0.1979759
30	0xbe3e0249	-0.18555559
31	0xbe64aa1d	-0.22330518
32	0xbe9be820	-0.30450535
33	0x3de28280	0.11060047
34	0xbebe0256	-0.37111157
35	0xbe7b2ffa	-0.2453002
36	0x3d1fc964	0.03901042
37	0xbf0f544f	-0.5598802
38	0xbe578007	-0.21044932
39	0x3f0f4434	0.55963445
40	0x3e4afc4a	0.19822803
41	0xbde565c4	-0.11201051
42	0x3e6ecd97	0.23320614
43	0xbe882acb	-0.26595148
44	0x3ee35325	0.44399372
45	0xbf291db5	-0.66060954
46	0xbdf601b5	-0.12012044
47	0xbe753fbc	-0.23950094
48	0xbe76c52c	-0.24098653
49	0x3e2343a5	0.15943773
50	0xbd3177aa	-0.04332701
51	0xbe5a37b9	-0.21310319
52	0x3e4bf02a	0.19915834
53	0x3e0b74df	0.13618802
54	0xbdb197ba	-0.08671518
55	0xbedccb7a	-0.4312399
56	0xbeb2981b	-0.34881672
57	0xbd8d26a8	-0.06892139
58	0xbf4c3e06	-0.7978214
59	0x3ec2ebe2	0.3807059
60	0x3e89adc7	0.26890394
61	0x3d431234	0.04762478
62	0x3e68d099	0.22735824
63	0xbe2620be	-0.16223428
64	0xbce969f6	-0.028492909
65	0x3ec28c85	0.37997833
66	0xbddbc80f	-0.107315175
67	0x3f42c858	0.7608695
68	0x3e224508	0.15846646
69	0x3e8f84e8	0.28031087
70	0xbe6da27d	-0.23206516
71	0x3ccdff9c	0.025146298
72	0xbe1cf9df	-0.15329693
73	0xbebe8d77	-0.37217304
74	0xbd047fbf	-0.03234839
75	0x3ec6d2b2	0.38832623
76	0x3f217f22	0.63084614
77	0x3de442d3	0.11145558
78	0x3e0767c6	0.1322318
79	0xbee2bb18	-0.44283366
80	0x3e19dae3	0.15024905
81	0x3ad44929	0.001619612
82	0xbe932be6	-0.2874443
83	0xbd682b9c	-0.056682214
84	0xbe482012	-0.19543484
85	0x3e21c862	0.15799096
86	0x3e682b5b	0.22672789
87	0xbe5efae6	-0.21775398
88	0xbf163089	-0.5866781
89	0x3ef92c43	0.48666582
90	0x3ea36882	0.3191567
91	0x3de0c767	0.10975533
92	0x3e28e547	0.16493712
93	0xbf933e94	-1.1503472
94	0x3f2f2f16	0.6843122
95	0x3e1ca666	0.15297851
96	0xbdcc8e88	-0.09988123
97	0x3ed28bb6	0.41122216
98	0x3d26fd9e	0.040769212
99	0xbd0bd95a	-0.03414283
100	0xbeafb6f9	-0.34319285
101	0x3d786049	0.0606387
102	0xbe2c5b6b	-0.16831748
103	0x3e6d8702	0.23196033
104	0xbdf3b6d1	-0.11900104
105	0x3cc01156	0.023445766
106	0xbe61bc00	-0.22044373
107	0x3eb1c951	0.34723905
108	0x3ec095cc	0.37614286
109	0xbdd25d8a	-0.102717474
110	0xbce06a2d	-0.027394379
111	0x3e1713a5	0.14753588
112	0xbea06d09	-0.31333187
113	0xbe1ff035	-0.15618975
114	0xbe11b339	-0.14228524
115	0x3e92ad93	0.28648052
116	0x3f07d477	0.5305857
117	0xbed38d18	-0.41318583
118	0x3d57d8d3	0.052697014
119	0xbd9487f3	-0.07252493
120	0xbe31be6a	-0.17357793
121	0x3e4da781	0.20083429
122	0x3d9e39f6	0.07725899
123	0x3e5dd521	0.21663333
124	0x3f86a6ba	1.0519631
125	0xbd63a8a4	-0.05558075
126	0x3e60d567	0.21956407
127	0x3cbd4d04	0.023108013
128	0x3e04b301	0.1295891
129	0xbf825e47	-1.0185021
130	0xbe1d1121	-0.15338565
131	0xbe753b5d	-0.23948427
132	0x3e48c2a3	0.19605498
133	0x3ecf524c	0.40492475
134	0x3df11a2f	0.11772572
135	0xbea0b810	-0.3139043
136	0x3e891822	0.26776224
137	0xbd8c5c11	-0.06853498
138	0xbd92e626	-0.071728036
139	0x3e418c50	0.18901181
140	0x3e239b61	0.15977241
141	0xbcb2e2a2	-0.021836583
142	0xbc3fa79e	-0.011697678
143	0xbb977e86	-0.004623237
144	0x3eedf7ef	0.4647822
145	0xbeaba678	-0.33525443
146	0x3db4229a	0.08795662
147	0x3e6d097c	0.23148149
148	0x3e0a410b	0.13501374
149	0xbeaf225a	-0.34205896
150	0xbe105ac1	-0.1409712
151	0x3e7c5382	0.2464123
152	0xbd1c41a2	-0.03814853
153	0x3d9af596	0.07566373
154	0xbdd4c9f5	-0.10390083
155	0x3eb9fb45	0.36324516
156	0xbe86a8c5	-0.26300636
157	0xbba9ea6e	-0.005185417
158	0xbc7984e0	-0.015229434
159	0xbe912cef	-0.28354594
160	0xbd3a747e	-0.04552125
161	0x3d574b6c	0.052562162
162	0xbc35a0de	-0.011085717
163	0x3cfe9a55	0.03107945
164	0x3c75acbf	0.014994799
165	0x3eb1bb8e	0.34713405
166	0x3ffe1f59	1.9853317
167	0xbe85098a	-0.2598384
168	0x3e5ea4af	0.2174251
169	0x3d80ce8c	0.06289396
170	0x3d9aaa11	0.07551969
171	0xbd599b2c	-0.0531265
172	0xbc278636	-0.0102248695
173	0x3e01f3d6	0.12690672
174	0x3cc0a64a	0.023516793
175	0xbf72c9f7	-0.94839424
176	0xbe973b34	-0.29537356
177	0x3ea0665b	0.3132809
178	0xbd3bc4c1	-0.045841936
179	0xbb930a39	-0.0044873026
180	0xbd27de52	-0.040983506
181	0xbea2baf1	-0.3178325
182	0x3dfdb781	0.12388516
183	0xbe280153	-0.16406755
184	0x3ceaffa9	0.028686361
185	0xbd4e8521	-0.05041993
186	0xbdd0fca4	-0.102044374
187	0xbdba25e9	-0.09089262
188	0x3e61e9eb	0.22061889
189	0x3d61abae	0.055095367
190	0xbebaf2c1	-0.36513332
191	0x3ebd435f	0.36965463
192	0xbe4a9d14	-0.19786483
193	0xbe0f3f21	-0.13988926
194	0xbdd2485f	-0.1026771
195	0x3e22187c	0.15829653
196	0xbb949240	-0.004534036
197	0xbcb13cb8	-0.021635398
198	0xbda90d28	-0.082544625
199	0xbd899cab	-0.06719335
200	0xbd209eec	-0.03921406
201	0x3e24da17	0.1609882
202	0xbe32d009	-0.17462172
203	0x3e64eeb8	0.22356689
204	0xbd157adb	-0.036494117
205	0x3e72ad7a	0.23698989
206	0x3dc4591f	0.09587311
207	0xbd20695e	-0.039162986
208	0x3deb1786	0.11479096
209	0xbde50f74	-0.11184588
210	0xbe2c094e	-0.16800424
211	0xbea1caf2	-0.31600147
212	0xbf132871	-0.57483584
213	0xbe40dcba	-0.188342
214	0x3d485262	0.04890669
215	0xbefb5079	-0.49084833
216	0xbebd0d99	-0.36924437
217	0x3f1e34cc	0.6179931
218	0x3eda950e	0.42691845
219	0x3dffcbb2	0.12490024
220	0xbf1bfcc9	-0.60932595
221	0x3e8bc517	0.27298805
222	0xbeab472e	-0.33452743
223	0xbe8d064e	-0.27543873
224	0x3e88b6a5	0.26701847
225	0x3eddc4b3	0.43314132
226	0x3eb4119a	0.3516968
227	0xbea3c490	-0.31985903
228	0x3ea6a0b7	0.3254449
229	0x3e30e9f8	0.17276752
230	0x3ec83ffc	0.39111316
231	0xbe4ceaa9	-0.20011391
232	0xbe95dfc4	-0.29272282
233	0x3f67e75a	0.9058739
234	0xbd3587b8	-0.044318885
235	0xbf04c61c	-0.5186479
236	0xbf89613f	-1.0732802
237	0x3da7250c	0.08161363
238	0x3e001e44	0.12511545
239	0xbe1c5713	-0.15267591
240	0x3d27b39d	0.040942777
241	0xbe9febd0	-0.31234598
242	0xbc92ef9d	-0.017936522
243	0x3eb47aac	0.3524984
244	0xbf0c9218	-0.5491042
245	0x3e4dcc87	0.20097552
246	0xbe1c5aa1	-0.15268947
247	0xbeac8cd5	-0.33701196
248	0xbb094429	-0.0020945168
249	0x3e211c8e	0.15733549
250	0x3d58518b	0.05281214
251	0x3eb25911	0.34833577
252	0x3e9e4f06	0.30919665
253	0xbf02b2e9	-0.51054245
254	0xbd610380	-0.05493498
255	0x3c7869b0	0.015161917

rnn.rnn.bias_ih_l0 f4 [90]
0	0xbd4414e8	-0.0478715
1	0x3e9607de	0.29302877
2	0x3eba7e75	0.36424604
3	0x3ea20f39	0.3165224
4	0x3d89b5a1	0.06724096
5	0xbd448901	-0.04798222
6	0x3e968043	0.2939473
7	0x3e9a1197	0.30091545
8	0x3ed2b7b0	0.41155767
9	0x3ea29b6f	0.3175921
10	0x3fb541a7	1.416066
11	0x3e8b029f	0.27150437
12	0xbf05af75	-0.5222085
13	0x3eb699c5	0.35664192
14	0x3dbd6e34	0.09249535
15	0x3bfc9bd0	0.007709004
16	0x3edfe916	0.43732518
17	0x3f29362f	0.660983
18	0x3e4434e4	0.19160801
19	0x3ef0dc69	0.4704316
20	0x3e6a3d74	0.22875005
21	0xbf6c3a69	-0.92276627
22	0x3f3b4870	0.73157406
23	0x3ef7a9b3	0.48371658
24	0xbdd6f3b8	-0.104957044
25	0x3f063a88	0.5243306
26	0x3ed5bcd6	0.41745633
27	0xbdadd515	-0.08487908
28	0xbe202c05	-0.15641792
29	0xbddb086e	-0.10694967
30	0xbe8805fe	-0.26567072
31	0xbbd40c70	-0.006471209
32	0x3f97556d	1.1822945
33	0xbd3d047a	-0.046146847
34	0x3ce87320	0.028375208
35	0x3f02dd41	0.51118857
36	0x3dfbde45	0.12298254
37	0xbf0072c6	-0.5017513
38	0x3e5b3a80	0.21409035
39	0xbc70b884	-0.014692429
40	0xbf1325ef	-0.5747976
41	0xbedd8b1e	-0.432702
42	0x3fbf0024	1.4921918
43	0xbe5dbca8	-0.21653998
44	0x3f0cab2b	0.5494868
45	0x3e2fa162	0.17151406
46	0xbe10dea4	-0.1414743
47	0xbf4168b1	-0.7555037
48	0x3ea0e054	0.3142115
49	0xbecaeb9a	-0.39632875
50	0xbd842f7e	-0.06454371
51	0x3f99c042	1.2011797
52	0x3cd2ec10	0.025747329
53	0xbf34f86e	-0.70691574
54	0xbd93ce04	-0.07217029
55	0xbd830c2a	-0.063988045
56	0xbed26ab4	-0.41097033
57	0xbe7242d2	-0.23658302
58	0x3e86763d	0.26262084
59	0xbd924d4d	-0.0714365
60	0xbf59ef2c	-0.8513057
61	0xbe981374	-0.29702342
62	0x3da4c583	0.08045485
63	0xbd7ca4bc	-0.06168054
64	0xbe5546fa	-0.20827857
65	0xbdf3cce4	-0.11904314
66	0xbe63974c	-0.22225684
67	0xbef9a782	-0.4876061
68	0x3da9ec4b	0.082970224
69	0xbe6be0c1	-0.23034956
70	0xbf5e8bc0	-0.8693199
71	0x3e8f08a0	0.27936268
72	0xbc046880	-0.008081555
73	0xbe217db8	-0.15770614
74	0x3e04e394	0.12977439
75	0x3da9accf	0.08284914
76	0x3ccdaab3	0.02510581
77	0xbed7bd2c	-0.42136514
78	0x3e922218	0.28541636
79	0xbf44bca8	-0.76850367
80	0xbec0c1e6	-0.37647933
81	0x3e55ec38	0.20890892
82	0xbed1d0fc	-0.40979755
83	0x3ec2c652	0.3804193
84	0x3e936256	0.28785962
85	0xbea62ed6	-0.32457608
86	0xbe219a53	-0.15781526
87	0x3e88d6cc	0.26726377
88	0x3deebb42	0.1165681
89	0xbd942ccd	-0.072351076

rnn.rnn.bias_hh_l0 f4 [90]
0	0x3dd8f741	0.10594035
1	0x3e6f4c1f	0.23368882
2	0x3e45bc9a	0.19310227
3	0x3eb8a561	0.36063674
4	0xbe1cc3f4	-0.15309125
5	0x3cee3691	0.029078754
6	0x3eb82ecb	0.359732
7	0x3db362f2	0.08759107
8	0x3ead233d	0.33815947
9	0x3ee71ee2	0.4514075
10	0x3fb1c0f2	1.3887007
11	0x3e9e27af	0.3088965
12	0xbf00692f	-0.501605
13	0x3e2585cc	0.1616432
14	0xbd651ff1	-0.055938665
15	0xbe3d65de	-0.1849589
16	0x3e526ca1	0.20549251
17	0x3f1791b0	0.59206676
18	0x3e7880a3	0.24267821
19	0x3e5bc4cb	0.2146179
20	0x3e758dd2	0.23979881
21	0xbf3c4b39	-0.7355228
22	0x3f2d0563	0.67586344
23	0x3f3aede9	0.7301927
24	0xbda84cb3	-0.08217754
25	0x3f0498c9	0.5179563
26	0x3ed20dca	0.41026145
27	0xbbb5419a	-0.005531502
28	0xbe1fef24	-0.15618569
29	0xbe6c8ee0	-0.23101377
30	0xbed4b5c3	-0.41544923
31	0xbe43df0d	-0.19128056
32	0x3f58dd7f	0.84712976
33	0xbe1629c3	-0.14664368
34	0xbdae7b42	-0.08519603
35	0x3ed54bea	0.4165948
36	0x3e979f0e	0.29613537
37	0xbecf4c02	-0.40487677
38	0xbdabcfa3	-0.08389213
39	0x3d88a71b	0.06672498
40	0xbf1067d2	-0.5640842
41	0xbed1eaa7	-0.40999338
42	0x3fb67b7e	1.4256437
43	0xbe2085b7	-0.15676008
44	0x3ee49855	0.4464747
45	0x3d1a3e7c	0.037657246
46	0x3dee6472	0.11640252
47	0xbf5ddee3	-0.86668223
48	0x3eb69a84	0.3566476
49	0xbd93f34a	-0.07224138
50	0xbcbc2438	-0.02296649
51	0x3f86cb8a	1.0530865
52	0xbd286649	-0.04111317
53	0xbf800661	-1.0001947
54	0xbe0aafcf	-0.13543628
55	0x3e45fe46	0.19335279
56	0xbebbf162	-0.36707598
57	0xbe99c10a	-0.3003009
58	0x3e5ed02e	0.21759102
59	0x3d696ca4	0.056988373
60	0xbe3cfc2e	-0.18455574
61	0xbf8d1db8	-1.1024694
62	0xbde752d6	-0.112950966
63	0x3da78994	0.08180538
64	0xbe635b78	-0.22202861
65	0xbcf355b6	-0.029703956
66	0xbd8ec7c7	-0.06971698
67	0x3d42b30c	0.047534034
68	0x3f25ed03	0.64814776
69	0xbe8e2ea8	-0.2776997
70	0xbf2c0c2e	-0.67206085
71	0x3f327714	0.6971295
72	0x3da97469	0.082741566
73	0xbe5d304a	-0.21600452
74	0x3d693898	0.056938738
75	0x3e8c7562	0.27433306
76	0x3e5e8f21	0.21734287
77	0xbed3424a	-0.41261512
78	0x3eb13654	0.34611762
79	0xbee6b6ce	-0.45061344
80	0xbe8b62e4	-0.27223885
81	0x3cb1425d	0.02163809
82	0xbf8d8ec6	-1.1059196
83	0x3f7cea3f	0.9879493
84	0x3d40e371	0.047091905
85	0xbedac03a	-0.42724782
86	0xbee52053	-0.44751224
87	0xbeb6aaa8	-0.35677075
88	0x3e2b46b0	0.16726184
89	0xbd3032c4	-0.043017164

rnn.fc.weight f4 [32, 30]
0	0x3dc67ffc	0.0969238
1	0xbebccda2	-0.36875635
2	0xbc2e2ab1	-0.010630296
3	0x3d6ecdf9	0.0583019
4	0x3ea8c02c	0.32959116
5	0x3df4cc33	0.119530104
6	0xbeb67afd	-0.35640708
7	0x3ea24444	0.31692708
8	0x3e632a7d	0.22184177
9	0xbf004088	-0.50098467
10	0xbec8b83e	-0.39203066
11	0x3eaf06f0	0.3418498
12	0xbc64e445	-0.013970439
13	0x3e6c8b54	0.23100024
14	0xbe8813b7	-0.2657754
15	0x3f0a5a39	0.5404392
16	0x3eb7c6ea	0.35893947
17	0x3b7dd8cd	0.003873396
18	0x3ea22a7e	0.31673044
19	0x3d33a215	0.043855745
20	0x3f15c986	0.58510625
21	0x3d9a0d6d	0.07522092
22	0xbeef8e2e	-0.46788162
23	0xbc564ae8	-0.0130793825
24	0x3f8c5cf8	1.0965872
25	0xbd4a3a0f	-0.049371775
26	0x3e99b7a0	0.30022907
27	0x3e2e191e	0.17001769
28	0x3ecfb145	0.40564933
29	0xbe9ad4ea	-0.30240566
30	0xbaae2a90	-0.0013287831
31	0x3d9ffdf7	0.07812112
32	0x3e860251	0.26173642
33	0xbd8de331	-0.06928099
34	0x3e86b846	0.26312464
35	0x3e89630a	0.26833373
36	0xbe82ad09	-0.2552264
37	0x3b0a6046	0.0021114512
38	0xbd96d469	-0.07364733
39	0x3e3c59d4	0.18393642
40	0xbe59dc2a	-0.21275392
41	0x3e0d7f8e	0.1381819
42	0xbe1bec60	-0.15226889
43	0xbc2d42e4	-0.01057503
44	0x3cbfc534	0.023409463
45	0x3c4bc5cf	0.012437298
46	0xbf11ebda	-0.57000506
47	0x3ec319bf	0.3810558
48	0x3d03edf9	0.03220937
49	0x3e19ad66	0.15007553
50	0x3d8d0545	0.06885771
51	0x3d5525f9	0.052038167
52	0xbdd4dd30	-0.10393751
53	0xbea2584a	-0.31707984
54	0xbe4c89f6	-0.19974503
55	0x3eba525d	0.36390963
56	0x3e6ceba0	0.23136759
57	0x3d810b7b	0.06301018
58	0x3da948b4	0.0826582
59	0xbd0e2e43	-0.034712087
60	0x3e57919e	0.21051642
61	0xbe9c75e2	-0.30558687
62	0x3ea358f2	0.31903797
63	0xbea511fd	-0.32240286
64	0x3d2c2f9d	0.042037595
65	0x3e632e21	0.22185566
66	0xbdebf973	-0.11522188
67	0x3deee930	0.11665571
68	0x3e8d2f52	0.27575165
69	0x3dd0c7aa	0.10194333
70	0xbd8f1661	-0.0698669
71	0x3dbfc227	0.093632035
72	0xbeb7c188	-0.3588984
73	0xbeb76080	-0.3581581
74	0x3d97c049	0.07409722
75	0xbee1369a	-0.4398697
76	0xbf00c849	-0.5030561
77	0x3ec6e78c	0.3884853
78	0x3d7c96a4	0.0616671
79	0xbeb29c40	-0.34884834
80	0x3de3dd78	0.11126226
81	0x3e6fe325	0.23426493
82	0xbc50e71f	-0.012750416
83	0xbe37d018	-0.17950475
84	0xbeed2d07	-0.46323416
85	0x3e14c3b3	0.14527778
86	0xbbb2c959	-0.0054561314
87	0xbf189e58	-0.59616613
88	0xbe93f402	-0.288971
89	0x3df69c48	0.12041527
90	0x3e911a60	0.28340435
91	0xbe97bfd9	-0.29638556
92	0x3e966053	0.29370365
93	0xbe17a2bd	-0.14808173
94	0x3e73969f	0.23787926
95	0x3e06c295	0.13160165
96	0xbcd89004	-0.02643586
97	0x3e4b137a	0.19831648
98	0x3e28e333	0.1649292
99	0xbe98a734	-0.29815066
100	0xbb11848a	-0.0022204244
101	0x3e3e3a24	0.18576866
102	0xbe48e00e	-0.1961672
103	0x3ec8b41e	0.39199919
104	0xbdcac488	-0.099007666
105	0x3e331d38	0.17491615
106	0x3e816844	0.2527486
107	0x3d877b08	0.06615263
108	0x3ebb4b80	0.3658104
109	0xbd8dea62	-0.069294706
110	0xbc9e4d18	-0.01932387
111	0x3d61ae2a	0.055097736
112	0xbd7bcffe	-0.061477654
113	0xbe393474	-0.18086416
114	0x3c6a2756	0.014291605
115	0x3e249bc6	0.16075048
116	0x3ea02294	0.3127638
117	0xbeb45cdb	-0.35227093
118	0x3ead3b1d	0.33834162
119	0xbea8304f	-0.32849357
120	0xbe854880	-0.26031876
121	0xbdc4b475	-0.09604732
122	0x3c0e33a6	0.008679306
123	0x3ee1b7ed	0.44085637
124	0xbe781d90	-0.24230027
125	0x3e89a63a	0.26884633
126	0x3e994c42	0.29940993
127	0xbdb5a01b	-0.08868428
128	0x3e8d69a3	0.27619657
129	0x3c5c6404	0.01345158
130	0xbd959b7d	-0.07305048
131	0x3e2d2b60	0.16911077
132	0x3cf0a924	0.029377528
133	0xbeb73c42	-0.3578816
134	0xbeb09bb9	-0.34493807
135	0xbc139353	-0.009007293
136	0x3e192360	0.149549
137	0xbd5f58a0	-0.05452788
138	0xba81da5d	-0.0009906996
139	0x3c7715bf	0.015080868
140	0xbe276352	-0.16346481
141	0xbe247d83	-0.16063504
142	0xbe8b557c	-0.27213657
143	0x3dfea9fc	0.12434766
144	0x3eb9ca78	0.36287284
145	0xbd7cba3b	-0.06170104
146	0xbdcb98cc	-0.09941253
147	0xbdded4d6	-0.10880439
148	0xbe25d49a	-0.16194382
149	0x3e8fb291	0.28065923
150	0x3e206f77	0.1566752
151	0x3e4e3a30	0.20139384
152	0x3ee930c5	0.4554502
153	0x3dfc08b4	0.123063475
154	0x3e66f139	0.22552957
155	0x3e61c40f	0.22047447
156	0xbe345b9b	-0.1761307
157	0x3dc1cc4c	0.09462795
158	0xbd1e81ac	-0.038697883
159	0xbea5ec82	-0.32407004
160	0x3d148a3e	0.03626465
161	0xbdc19abb	-0.094533406
162	0xbcda7d80	-0.026671171
163	0x3e952a04	0.29133618
164	0xbe9163c2	-0.28396422
165	0x3e78c7a1	0.24294902
166	0x3f08628d	0.53275377
167	0xbdee1848	-0.11625725
168	0x3eba4601	0.36381534
169	0xbd88d5b8	-0.066813886
170	0x3e058aad	0.13041182
171	0x3e4bbb27	0.19895612
172	0x3afd82fb	0.0019341403
173	0xbf0a5894	-0.5404141
174	0x3f3a070e	0.72667015
175	0x3e21152c	0.15730733
176	0x3f0645cd	0.5245026
177	0xbde24354	-0.11047998
178	0x3e899728	0.26873136
179	0xbe27ef7c	-0.1639995
180	0xbf27b7df	-0.6551494
181	0xbe2a303d	-0.16619964
182	0xbf4d0c07	-0.8009648
183	0xbe5684b8	-0.20949066
184	0x3d0d59ec	0.034509584
185	0xbf19fcbb	-0.6015126
186	0xbe0ad58f	-0.13558029
187	0xbc279dfe	-0.010230539
188	0x3e904c09	0.2818301
189	0x3e86d348	0.2633307
190	0xbe653b74	-0.22385961
191	0x3d844c5e	0.064598784
192	0xbe17712d	-0.14789267
193	0x3dbf7222	0.09347941
194	0xbec9abbe	-0.3938884
195	0x3e6ed57e	0.23323628
196	0xbf73b24f	-0.9519395
197	0x3f480d36	0.7814516
198	0x3f57a129	0.84230286
199	0xbe136631	-0.14394452
200	0x3e9efc4c	0.31051862
201	0xbdd38efb	-0.10330006
202	0xbee36bc4	-0.44418156
203	0x3e282a20	0.1642232
204	0xbddcc921	-0.1078055
205	0x3e3f1ea5	0.18664034
206	0xbe001bea	-0.12510648
207	0x3f94da48	1.1629114
208	0x3e817cb4	0.25290453
209	0xbe982b74	-0.29720652
210	0x3e1c970d	0.15291996
211	0x3c17aae1	0.009257049
212	0x3c82965c	0.015940838
213	0xbdb97fbb	-0.09057566
214	0xbb34e222	-0.0027600606
215	0x3d0cc85f	0.034370776
216	0xbea9b0e3	-0.33142766
217	0x3d178f43	0.03700186
218	0x3e9cfb0c	0.30660284
219	0xbe2c09d1	-0.1680062
220	0xbe9db1f6	-0.30799836
221	0x3d8a5740	0.06754923
222	0xbd2e3ef5	-0.04254051
223	0x3eae96b3	0.3409935
224	0xbe87c37a	-0.26516324
225	0x3eafebd9	0.34359625
226	0xbd5be5c1	-0.053685907
227	0x3e3bcead	0.1834056
228	0x3e8fc8ea	0.28082973
229	0xbd56aa5b	-0.052408557
230	0x3d7fd733	0.06246109
231	0x3d32c599	0.043645475
232	0xbe2e20dc	-0.17004722
233	0xbe0f5fa1	-0.14001323
234	0xbd198017	-0.03747567
235	0x3ea46118	0.32105327
236	0x3e324606	0.17409524
237	0xbc06cecf	-0.008228018
238	0x3ed2cb2c	0.41170633
239	0xbe8e0752	-0.2773996
240	0xbe84a712	-0.25908715
241	0x3e0f465c	0.13991684
242	0xbd6079d9	-0.054803703
243	0x3e33138d	0.17487927
244	0xbe79d405	-0.24397285
245	0xbd806943	-0.06270077
246	0xba580ef4	-0.0008241974
247	0xbd313f25	-0.04327311
248	0xbdce3240	-0.10068178
249	0x3e6c5f26	0.23083171
250	0xbd095093	-0.033524107
251	0xbbc43a29	-0.0059883785
252	0x3d52a9c7	0.051431444
253	0xbe4ae5e4	-0.19814259
254	0x3d9c93dc	0.076453894
255	0xbced97d5	-0.029003063

rnn.fc.bias f4 [32]
0	0x3eb86502	0.36014563
1	0x3e910a0f	0.28327987
2	0x3e3dffb2	0.18554571
3	0x3e035163	0.12824015
4	0x3dbc27b3	0.091872595
5	0x3e7ef12e	0.2489669
6	0x3ce28a40	0.027653813
7	0x3eadaa61	0.3391905
8	0x3dadb90f	0.08482563
9	0x3eaf1046	0.34192103
10	0x3df85843	0.121262096
11	0x3f2acaa7	0.6671547
12	0x3d3d6970	0.04624313
13	0x3ea4cc0e	0.3218693
14	0x3f2ba81c	0.6705339
15	0x3de47069	0.11154253
16	0x3ead541e	0.3385324
17	0x3e6916e9	0.22762646
18	0x3d4f68fd	0.050637234
19	0xbc9f916a	-0.019478519
20	0x3d227538	0.03966257
21	0x3fe207f2	1.7658675
22	0x3d680ed1	0.056654755
23	0x3df2c3e6	0.11853771
24	0x3e46f0dd	0.1942782
25	0x3ebeaa66	0.3723938
26	0xbe65b6f0	-0.22433066
27	0x3e4bbd29	0.19896378
28	0x3dfc4b8b	0.12319096
29	0x3eaf2e63	0.34215078
30	0x3e0a8c9d	0.13530202
31	0x3e25a6d0	0.16176915

rnn.fc_mean.weight f4 [3, 32]
0	0x3fcfd2b3	1.6236175
1	0xbe91fc77	-0.28512928
2	0xbeb767d6	-0.35821408
3	0x3f5a0add	0.85172826
4	0xbe9e3a73	-0.30903968
5	0x3f4107b5	0.75402385
6	0xbf6c2aca	-0.9225279
7	0x3eaeae6e	0.34117454
8	0x403e616f	2.9746969
9	0x3f5be89d	0.85901815
10	0x3e7a6fc8	0.24456704
11	0xbd2c6e01	-0.042097095
12	0x3f936e06	1.1517951
13	0xbe0914b8	-0.1338681
14	0xbec8b69b	-0.39201817
15	0xbd004420	-0.03131497
16	0xbfe87c72	-1.8162978
17	0x3e68b4f7	0.22725283
18	0xbe01e63b	-0.12685482
19	0x3dd194d4	0.10233465
20	0x3ea94da4	0.33067048
21	0xbf0f71e5	-0.56033164
22	0x3da3151f	0.07963013
23	0xbddbb942	-0.107286945
24	0x3dc7ec3b	0.09761854
25	0xbf42a0cd	-0.7602661
26	0x3cb6fe0b	0.022337934
27	0x3e343fa3	0.176024
28	0x3cde300c	0.02712252
29	0x3e138857	0.14407478
30	0xbe4faa33	-0.2027977
31	0x3f59caae	0.8507489
32	0x3fe12b06	1.7591255
33	0xbc2ed049	-0.010669776
34	0xbf4ef010	-0.80835056
35	0x3d8df215	0.06930939
36	0x3f610399	0.87896115
37	0xbe1a3349	-0.15058626
38	0x3fb7cb1e	1.4358861
39	0x3f021fd9	0.50829846
40	0xbce58d5d	-0.028021509
41	0xbfa81460	-1.3131218
42	0xbf26fde6	-0.6523117
43	0x3d383098	0.044968218
44	0x3f7f94ed	0.9983662
45	0x3e7126b6	0.23549923
46	0x3e4eaa3a	0.20182124
47	0x3e87f835	0.26556554
48	0xbfdaf7ec	-1.710691
49	0x3e14f499	0.14546432
50	0x3c52edfd	0.012874124
51	0x3ea52517	0.3225486
52	0xbf243e74	-0.64157796
53	0xbee4264f	-0.44560477
54	0xbddb5b36	-0.107107565
55	0x3db6333d	0.08896492
56	0x3f12dd7d	0.57369214
57	0xbf3f8ef9	-0.74827534
58	0x3d3479ef	0.044061597
59	0x3e30ad13	0.17253523
60	0x3d699849	0.057029996
61	0x3eaaebdf	0.3338308
62	0xbe77f5eb	-0.24214904
63	0x3eb43a26	0.35200614
64	0x3f1e7d23	0.61909693
65	0x3e920c2a	0.28524905
66	0x3f1dc461	0.61627775
67	0x3f18588b	0.59510106
68	0xbf665316	-0.8997053
69	0x3eab4fc6	0.334593
70	0x3e031739	0.12801827
71	0x3e82f73b	0.25579247
72	0xbda7159c	-0.081584185
73	0xbf617337	-0.8806643
74	0x3e2903bb	0.1650533
75	0xbeaca2d3	-0.33717975
76	0x3f601d22	0.87544453
77	0x3ea872b1	0.32900003
78	0x3dab8b1a	0.08376141
79	0x3eddce10	0.43321276
80	0x3fce3af1	1.6111737
81	0x3ec7817b	0.38965973
82	0x3f23502f	0.63794225
83	0x3e34c507	0.17653285
84	0x3e9e4e2a	0.3091901
85	0xc018979f	-2.3842542
86	0x3e977d05	0.2958757
87	0x3f05b70f	0.5223245
88	0x3f499f3b	0.7875859
89	0x3ed292bb	0.4112757
90	0xbdb5513a	-0.08853383
91	0x3f19aaf7	0.60026497
92	0xbcf9d263	-0.030495828
93	0x3f06743a	0.525211
94	0x3f19a7de	0.6002177
95	0x3ee9c21c	0.45655906

rnn.fc_mean.bias f4 [3]
0	0xbdbc292e	-0.09187542
1	0x3f1a9504	0.6038363
2	0x3d45ab51	0.048259083

rnn.fc_vars.weight f4 [3, 32]
0	0xbeb61664	-0.35563958
1	0x3d7a6309	0.061129604
2	0x3e0172c2	0.12641433
3	0x3d13393b	0.03594325
4	0xbe7e94f3	-0.24861507
5	0x3e1bea13	0.15226011
6	0x3dad72f5	0.08469192
7	0x3e0b63de	0.13612315
8	0x3f3c8424	0.7363913
9	0x3e7ba569	0.24574818
10	0x3ce47c0a	0.027891178
11	0x402f6b3b	2.7409198
12	0xbd89109d	-0.06692622
13	0x3e964270	0.29347563
14	0x3e8081cb	0.25099024
15	0x3e0dc9c0	0.13846493
16	0xbf4414d0	-0.7659426
17	0x3dbc2276	0.091862604
18	0x3e427d45	0.18993099
19	0x3c8c7777	0.017146809
20	0x3e8d9b7f	0.27657697
21	0x3fe6abc6	1.8021171
22	0x3e184180	0.14868736
23	0x3e0ae8c1	0.13565351
24	0x3e0e2e62	0.13884881
25	0x3e933e32	0.2875839
26	0x3e715cc1	0.23570539
27	0x3df5914f	0.11990606
28	0x3eb11134	0.34583437
29	0x3cf039f8	0.029324517
30	0x3ce27d62	0.027647678
31	0x3e15a5bb	0.14614002
32	0xbeb4f7df	-0.3534536
33	0x3ebc667b	0.36796936
34	0x3e759fdf	0.23986767
35	0x3e832394	0.2561308
36	0xbe15c9e5	-0.14627798
37	0x3e97d9db	0.29658398
38	0x3e929f82	0.2863732
39	0x3e356ebf	0.17718028
40	0x3ef5f5cb	0.48039088
41	0x3f24bfe3	0.64355296
42	0x3d98e852	0.074661866
43	0x402876e3	2.6322563
44	0xbddf9421	-0.10916925
45	0x3e4700c6	0.19433889
46	0x3f11c9ac	0.5694835
47	0x3d3982dd	0.045290817
48	0xbf8ff44c	-1.1246428
49	0x3e8b1fcc	0.27172697
50	0x3e4da2a1	0.20081569
51	0xbcefc74c	-0.029269837
52	0x3dbd6cd2	0.092492715
53	0x3fccdb80	1.6004486
54	0x3dc9098a	0.098162726
55	0x3e5532b7	0.20820127
56	0x3e6cccfa	0.23125067
57	0x3ee774f3	0.45206413
58	0x3dc214ad	0.094766
59	0x3e77b10c	0.24188632
60	0x3bb0bee5	0.00539385
61	0x3e25d557	0.16194664
62	0x3e1a3240	0.15058231
63	0xbd970174	-0.07373324
64	0xbea34919	-0.31891707
65	0x3e94b54b	0.29044566
66	0x3eac14c3	0.3360959
67	0x3e9bb017	0.30407783
68	0xbe2d35c4	-0.16915041
69	0x3e7b8537	0.24562536
70	0x3e97d0a4	0.29651368
71	0x3e84f3cc	0.25967252
72	0x3df25642	0.118328586
73	0x3f1d1c71	0.61371523
74	0x3ea0b687	0.31389257
75	0x3fa3b0df	1.2788352
76	0xbeb239e9	-0.34809807
77	0x3e972230	0.2951827
78	0x3f7c5ab2	0.9857589
79	0x3e261bac	0.16221493
80	0xbf9d0b08	-1.2268991
81	0x3e9b8744	0.30376637
82	0x3e40519c	0.18781132
83	0xbc3f8f42	-0.01169187
84	0x3e44a104	0.19202048
85	0x3fd5c728	1.6701403
86	0x3e45e2ea	0.19324842
87	0x3e7f61c6	0.24939641
88	0x3d7e3635	0.062063415
89	0x3f2862b2	0.657756
90	0xbd990533	-0.07471695
91	0x3e6e3570	0.23262572
92	0x3d1f9939	0.038964484
93	0x3e24dc73	0.1609972
94	0x3e156f1b	0.14593165
95	0x3e7f0d9e	0.24907538

rnn.fc_vars.bias f4 [3]
0	0x3eac9689	0.337086
1	0x3de1cad4	0.110250145
2	0x3caf660b	0.021410963
