models/LorenzSSM_danse_opt_gru_m_3_n_3_T_1000_N_500_sigmae2_-10.0dB_smnr_0.0dB/danse_gru_ckpt_epoch_671_best.pt (torch, 20799 bytes, 10 tensors)

rnn.rnn.weight_ih_l0 f4 [90, 3]
-0.027544241 -0.044422776 0.07664777 0.12805885 -0.09297717 -0.29936668 0.086188845 0.07981352
-0.08977997 0.0016888832 -0.0054523805 0.043039043 0.00060432666 0.013210505 -0.017387364 -0.4020598
-0.25337958 0.41066635 -0.6696705 -0.30121213 0.22749779 -0.009552735 -0.016059913 0.0025852364
-0.044362046 -0.0027345063 0.018752892 -0.3325045 -0.25612977 0.020551411 0.20288159 0.30351624
1.259027 0.021020949 0.041905884 0.039244477 0.18767294 0.4541687 -0.0019160984 -0.012496847
-0.055143 0.051743623 0.07279772 0.08193247 0.08903028 -0.32252198 -0.19938117 0.12912834
-0.009392257 -0.013961069 0.047157623 0.22210468 0.18124636 -0.22844613 0.05670497 0.08737059
0.1265201 0.16011757 0.09399884 0.068235084 0.45045963 -0.22404896 0.5291247 -0.35157
0.3116544 0.1720617 -0.5166491 -0.5760384 0.34939963 0.1499099 0.15057044 0.18633313
0.6381044 0.09728478 -0.4736354 0.006933898 -0.019746799 0.03936842 -0.015565277 -0.0871305
0.0078268815 -0.07041159 -0.17395861 0.27414992 -0.055225056 -0.08478996 0.0069484664 0.44428766
-0.2934151 0.15448256 0.0074798325 0.01224392 -0.03252943 -0.042876553 -0.14177097 0.39336225
-0.009982578 -0.006858124 0.0010251203 0.005856049 0.012888623 0.0027622841 -0.0019447119 -0.002829417
0.0010975907 0.11405304 0.025705654 -0.09116972 0.088736705 0.027942752 0.013778252 -0.00952052
-0.008336027 -0.002322642 0.015755748 0.0094894245 -0.011164921 -0.3018009 -0.33073243 0.46863002
-0.019150456 -0.008186632 -0.07129453 -0.00680076 -0.014208295 -0.007933099 -0.016972892 0.0063469307
0.015533968 -0.0053401096 -0.0031938283 -0.003244395 -0.007606425 0.015792947 -0.030189179 -0.3990486
0.38004225 0.2687419 0.0013557107 0.0079077985 -0.003990831 0.042712025 0.09047717 0.12911771
-0.21356192 -0.13726634 -0.03259342 -0.00561775 -0.007375147 -0.009254913 -0.25252268 0.6563868
-0.37328196 -0.0056471503 0.012814423 -0.04596383 -0.049255326 -0.027440896 -0.09268512 0.01000358
0.016843563 0.005128669 0.06966813 0.021537954 -0.099265955 0.00524586 0.0025983753 -0.0048408504
-0.01833181 -0.02257236 -0.029230887 -0.0063019725 0.007436014 -0.012711962 0.009391474 -0.011749476
-0.037462287 -0.43506697 0.22628392 -0.06674286 -0.04000332 -0.04910605 0.09464374 0.34572148
0.352487 -0.017223228 -0.02107771 -0.0051817857 0.0730413 0.022408152 0.024810871 -0.0020828915
-0.009310062 -0.01093872 0.02642721 -0.8178648 -0.25176743 -0.008727989 -0.10605015 -0.08337536
-0.009093298 0.013853409 0.024832247 0.0039176587 -0.009948587 -0.0031826724 0.017806102 -0.08904916
-0.07624574 0.06436009 -0.0060704937 -0.004880092 -0.009999017 -0.0014460944 -0.028461497 -0.019225158
-0.05528632 -0.049845666 -0.0048257927 -0.009596821 0.010463048 0.010023198 -0.036873117 -0.08516619
-0.061027676 -0.28085563 0.056435876 0.20208304 0.012530857 0.02847071 0.0063423123 -0.18250884
-0.17142141 0.114622526 -0.036332823 0.008016925 0.0023150328 0.012316041 0.00024724077 0.02754502
-0.022235703 -0.4751903 0.3136916 -0.017607253 -0.05383688 0.102906354 0.018312009 -0.12572737
-0.13277127 -0.008203797 0.021525763 -0.012570899 0.101273336 -0.0932855 -0.4215856 -0.008796994
00000000: 76a4 e1bc a8f4 35bd 82f9 9c3d dc21 033e
00000010: d16a bebd 9746 99be c783 b03d 4575 a33d
00000020: 90de b7bd 845d dd3a e2a9 b2bb b549 303d
00000030: ad6b 1e3a e070 583c f26f 8ebc c8da cdbe
00000040: f8ba 81be dc42 d23e 876f 2bbf 7a38 9abe
00000050: 2ef5 683e 1383 1cbc 1490 83bc 126d 293b
00000060: fab4 35bd 6735 33bb aa9f 993c 083e aabe
00000070: 7123 83be 6f5b a83c 31c0 4f3e 7b66 9b3e
00000080: cc27 a13f 2034 ac3c 81a5 2b3d d1be 203d
00000090: 562d 403e cd88 e83e 9825 fbba 93bf 4cbc
000000a0: a0dd 61bd 1ff1 533d f916 953d 36cc a73d
000000b0: 8255 b63d 9a21 a5be 942a 4cbe 383a 043e
000000c0: fbe1 19bc f8bc 64bc 5a28 413d 696f 633e
000000d0: a598 393e c8ed 69be 7843 683d 5aef b23d
000000e0: 7c8e 013e dcf5 233e 7782 c03d d6be 8b3d
000000f0: a5a2 e63e 176d 65be b774 073f fc00 b4be
00000100: 2a91 9f3e f130 303e 1e43 04bf 4177 13bf
00000110: 82e4 b23e fb81 193e 232f 1a3e 1dce 3e3e
00000120: cf5a 233f 3e3d c73d 5780 f2be c135 e33b
00000130: 0ac4 a1bc c840 213d 8105 7fbc 7a71 b2bd
00000140: 523c 003c f433 90bd 3522 32be 615d 8c3e
00000150: ab33 62bd 5ca6 adbd f6af e33b ac79 e33e
00000160: 813a 96be ad30 1e3e 6219 f53b b99a 483c
00000170: 943d 05bd 539f 2fbd 692c 11be c766 c93e
00000180: f88d 23bc 1dba e0bb 545d 863a 19e4 bf3b
00000190: ce2a 533c 7007 353b b4e5 feba bd6d 39bb
000001a0: 08dd 8f3a a494 e93d aa94 d23c 31b7 babd
000001b0: 97bb b53d 33e8 e43c 2dbe 613c f5fb 1bbc
000001c0: d593 08bc 7737 18bb 3312 813c 8879 1b3c
000001d0: 13ed 36bc a685 9abe c355 a9be 46f0 ef3e
000001e0: 6be1 9cbc 3921 06bc de02 92bd e9d8 debb
000001f0: e9c9 68bc d4f9 01bc bc0a 8bbc eaf9 cf3b
00000200: 2f82 7e3c 16fc aebb 8c4f 51bb ea9f 54bb
00000210: 513f f9bb 3660 813c 4c4f f7bc 1950 ccbe
00000220: e694 c23e 8a98 893e 1ab2 b13a b68f 013c
00000230: 84c5 82bb cef2 2e3d 184c b93d 6f37 043e
00000240: faaf 5abe 8c8f 0cbe ae80 05bd 1a15 b8bb
00000250: 38ab f1bb eba1 17bc a74a 81be f708 283f
00000260: d01e bfbe bb0b b9bb 96f3 513c 9244 3cbd
00000270: f4bf 49bd bbcb e0bc b2d1 bdbd 0ee6 233c
00000280: 83fb 893c 650e a83b 2aae 8e3d 5d70 b03c
00000290: f34b cbbd 77e5 ab3b 8149 2a3b ff9f 9ebb
000002a0: 982c 96bc abe9 b8bc 9d75 efbc c780 cebb
000002b0: cea9 f33b d545 50bc b2de 193c e080 40bc
000002c0: 0e72 19bd 19c1 debe f9b6 673e 7bb0 88bd
000002d0: 85da 23bd 6d23 49bd 94d4 c13d 6802 b13e
000002e0: 2d79 b43e ba17 8dbc 29ab acbc f8cb a9bb
000002f0: ad96 953d 4d91 b73c 2b40 cb3c 1f81 08bb
00000300: 3b89 18bc 5138 33bc e07d d83c 965f 51bf
00000310: a9e7 80be d7ff 0ebc d230 d9bd b3c0 aabd
00000320: 0efc 14bc 69f9 623c ff6c cb3c b45f 803b
00000330: 66ff 22bc 6294 50bb 1ade 913c 685f b6bd
00000340: ba26 9cbd 39cf 833d feea c6bb 2ee9 9fbb
00000350: ebd2 23bc e08a bdba 1628 e9bc 147e 9dbc
00000360: e973 62bd f82a 4cbd af21 9ebb fc3b 1dbc
00000370: 346d 2b3c 5738 243c 4408 17bd 9d6b aebd
00000380: 28f8 79bd 4fcc 8fbe 4e29 673d dbee 4e3e
00000390: 394e 4d3c 683b e93c 2cd3 cf3b 99e3 3abe
000003a0: 1889 2fbe 37bf ea3d bad1 14bd 6c59 033c
000003b0: ceb7 173b 38c9 493c 18a0 8139 18a6 e13c
000003c0: a627 b6bc 254c f3be 2f9c a03e 163d 90bc
000003d0: 0f84 5cbd 91c0 d23d 1103 963c adbe 00be
000003e0: 31f5 07be 3869 06bc cc56 b03c 2cf6 4dbc
000003f0: 6568 cf3d 780c bfbd 11da d7be 4421 10bc

rnn.rnn.weight_hh_l0 f4 [90, 30]
-0.34078652 0.11977038 -0.44832864 -0.45886368 0.05135755 -0.1214846 0.13526252 -0.2508232
-0.4739752 0.09722804 1.0404861 -0.46129626 -0.9438827 -0.39500177 0.15613058 0.14971955
0.12236405 -0.23412852 0.034695927 -0.4786569 0.0043311156 -0.23753476 -0.1387506 0.42580935
0.009919401 -0.76503944 -0.08709685 0.43515763 -0.5025506 0.0010665705 -0.58363646 1.6509238
-0.17367029 0.16500746 -0.1779703 2.2972696 -0.12502737 -0.1483001 -0.7275904 -1.6913131
0.64679116 -0.3796338 0.00039047224 -0.14448524 0.22116375 -0.7166957 -0.3952314 0.0855351
0.59240246 0.29026145 0.84654474 -0.33966094 0.5896308 -0.06379825 -0.95029205 -1.1955603
-0.19876747 0.23069538 -0.39697614 0.23154111 1.3889426 0.40012717 -1.4125812 -0.21374421
-0.7468843 0.45024633 0.050656326 0.7234849 -0.49819544 -0.22379 -0.65660834 1.919604
-0.7670355 0.29621544 -0.053900667 -0.1879552 0.5783359 0.4533191 0.66676486 0.027622098
0.1539665 -0.18787117 -0.6273056 0.41105494 -0.3667187 0.7113122 -0.86798686 -0.52829874
0.25074634 0.016892198 0.68892056 0.24085255 -0.023337841 -0.5034528 -0.13970028 0.18369375
-0.32771754 0.70601946 0.20741165 -0.17737873 -1.0415134 0.24772346 -0.41834813 0.76171035
0.41089466 -0.33429608 -0.0836352 0.6205342 0.5011327 0.7018814 0.084677406 0.09600947
-0.38014045 -0.6709198 0.05098274 0.53594637 0.3131187 -0.14854757 0.61396664 -0.01544376
0.05572729 0.31312984 0.57795095 -0.43419653 -1.1255957 0.28065398 0.041447848 -0.7830312
0.39964908 -0.24100193 -0.27027774 0.07547621 2.2157807 0.7935875 -0.42376974 -0.62268627
-0.67939204 0.03872136 -0.07718572 0.17214665 0.60422045 0.044910412 0.042143475 -0.46420813
-0.29377776 -0.26833114 -0.88940114 0.5066654 0.24348262 -0.28391543 -1.3007711 -0.3125798
-1.3105137 2.568617 -0.25908485 0.5427527 -1.7790732 -0.56218153 -0.63706154 -0.45227617
-0.21481247 -0.5674591 -1.1549151 -0.0584722 0.6763453 -0.3698024 -0.06940283 2.2962966
-0.3679993 -1.3016287 0.0018956016 -0.69303894 1.1583618 0.7797407 0.2475271 0.55698055
-0.70803344 -0.16164494 -1.1198722 -0.46976838 -0.7276221 -0.20644301 0.3059239 0.3594631
-1.7844614 -0.06943699 -0.2870596 0.074238606 0.5828755 -0.3555166 0.6521415 0.6662853
0.7786948 1.0467329 2.8876972 0.08013643 -0.47608253 -0.12010513 -0.1877571 0.23995896
0.13119121 0.0162998 0.1402742 0.017213475 0.26304165 1.0902835 -0.7975963 0.51806897
-0.41168544 -0.2421174 0.22744954 0.4276478 -0.3595197 -0.51883066 -0.30749652 0.30605552
-0.32694823 0.062938906 -0.118304044 -0.35520586 -1.1452059 -0.018260606 -0.5244344 0.124829136
0.28020325 -0.3646463 -0.97498167 0.12493536 0.31822237 0.712356 0.18786176 0.0043934975
-0.63074565 -0.47069144 -0.12687564 0.30992714 -0.44977906 0.19499104 0.8661764 0.0425547
0.7198513 0.45593515 0.015164571 -2.0182226 0.83533347 0.76176 -0.35385093 0.5298875
1.4047196 0.5120345 -0.17546745 -1.529618 1.2058363 1.1856277 0.096059516 -0.25048724
00000000: 927b aebe 2c4a f53d 558b e5be 2ef0 eabe
00000010: 4b5c 523d ebcc f8bd 4282 0a3e e66b 80be
00000020: e1ac f2be 7f1f c73d a62e 853f 062f ecbe
00000030: 4ca2 71bf ac3d cabe b2e0 1f3e 1550 193e
00000040: 019a fa3d 63bf 6fbe 511d 0e3d 8412 f5be
00000050: 08ec 8d3b 503c 73be a314 0ebe af03 da3e
00000060: fc84 223c a0d9 43bf d55f b2bd fbcc de3e
00000070: 28a7 00bf 2bcc 8b3a 3369 15bf 7951 d33f
00000080: a0d6 31be b7f7 283e d93d 36be 7706 1340
00000090: 2d07 00be fbdb 17be 5d43 3abf f37c d8bf
000000a0: 1b94 253f 5d5f c2be 4cb8 cc39 f0f3 13be
000000b0: c078 623e 5f79 37bf c55b cabe 072d af3d
000000c0: b0a7 173f 269d 943e 28b7 583f 0ae8 adbe
000000d0: 0bf2 163f a8a8 82bd 5746 73bf 1f08 99bf
000000e0: b389 4bbe 693b 6c3e 7540 cbbe 1d19 6d3e
000000f0: dfc8 b13f 78dd cc3e 76cf b4bf c3df 5abe
00000100: cf33 3fbf b086 e63e 027d 4f3d 4e36 393f
00000110: 7913 ffbe 3529 65be 7c17 28bf 95b5 f53f
00000120: 705c 44bf 8da9 973e f2c6 5cbd 5477 40be
00000130: d20d 143f 7119 e83e 1ab1 2a3f bd47 e23c
00000140: 65a9 1d3e 4d61 40be 1a97 20bf cb75 d23e
00000150: 8ec2 bbbe 8e18 363f 6334 5ebf 963e 07bf
00000160: d361 803e 8261 8a3c 195d 303f 0da2 763e
00000170: 002f bfbc 48e2 00bf 970d 0fbe 371a 3c3e
00000180: 98ca a7be b1bd 343f b863 543e c5a2 35be
00000190: 5050 85bf 38ab 7d3e ba31 d6be 73ff 423f
000001a0: c960 d23e db28 abbe ef48 abbd 54db 1e3f
000001b0: 3c4a 003f 80ae 333f 596b ad3d 9da0 c43d
000001c0: c5a1 c2be 66c1 2bbf 47d3 503d c833 093f
000001d0: 1851 a03e db1c 18be eb2c 1d3f d307 7dbc
000001e0: 4d42 643d 8e52 a03e 98f4 133f 024f debe
000001f0: 8513 90bf e1b1 8f3e 38c5 293d bc74 48bf
00000200: ce9e cc3e 36c9 76be d861 8abe 4593 9a3d
00000210: 5acf 0d40 8d28 4b3f 59f8 d8be 5e68 1fbf
00000220: a3ec 2dbf 4a9a 1e3d 8c13 9ebd 3647 303e
00000230: 31ae 1a3f fbf3 373d a39e 2c3d b0ac edbe
00000240: 0a6a 96be b362 89be cbaf 63bf d3b4 013f
00000250: 8253 793e 5d5d 91be ab7f a6bf 760a a0be
00000260: eabe a7bf 3964 2440 c5a6 84be d7f1 0a3f
00000270: acb8 e3bf 21eb 0fbf 7716 23bf be90 e7be
00000280: cdf7 5bbe 0045 11bf 42d4 93bf 8c80 6fbd
00000290: f724 2d3f bd56 bdbe 1223 8ebd 86f6 1240
000002a0: 676a bcbe c59b a6bf d675 f83a 006b 31bf
000002b0: 3345 943f 169d 473f be77 7d3e 4796 0e3f
000002c0: ae41 35bf 4086 25be f957 8fbf 7b85 f0be
000002d0: 7145 3abf cc65 53be 0fa2 9c3e 8c0b b83e
000002e0: 3b69 e4bf fb34 8ebd 7af9 92be 690a 983d
000002f0: 5437 153f 4606 b6be bff2 263f ac91 2a3f
00000300: 8b58 473f 58fb 853f 08d0 3840 921e a43d
00000310: 17c1 f3be aef9 f5bd 6643 40be cdb7 753e
00000320: fd56 063e 2887 853c 0aa4 0f3e 4603 8d3c
00000330: 65ad 863e 698e 8b3f 452f 4cbf 2ba0 043f
00000340: 6fc8 d2be a0ed 77be 88e8 683e a7f4 da3e
00000350: f712 b8be 16d2 04bf 2f70 9dbe 4fb3 9c3e
00000360: c265 a7be 1de6 803d 6449 f2bd 8bdd b5be
00000370: 1b96 92bf 4497 95bc 5541 06bf 6ba6 ff3d
00000380: cd76 8f3e ebb2 babe 6698 79bf 1cde ff3d
00000390: 0bee a23e f65c 363f d55e 403e 54f7 8f3b
000003a0: 8c78 21bf 78fe f0be b0eb 01be c5ae 9e3e
000003b0: 7149 e6be bbab 473e bdbd 5d3f d64d 2e3d
000003c0: 2d48 383f 5570 e93e d274 783c 8f2a 01c0
000003d0: 6ad8 553f b402 433f f32b b5be b5a6 073f
000003e0: dacd b33f b114 033f bdad 33be 86ca c3bf
000003f0: d858 9a3f a6c2 973f daba c43d dd3f 80be

rnn.rnn.bias_ih_l0 f4 [90]
-0.14454019 0.60282755 0.5422762 0.01568478 0.675657 0.017524198 0.23771036 0.36471075
0.3230871 0.4975695 0.4325074 -0.034593266 -0.21596968 0.58501965 -0.0022742045 0.29738992
0.24799185 0.8109898 0.7000204 0.56844044 0.04478339 0.3285818 -0.096166655 0.15080848
-0.0797182 0.058440637 -0.13638088 0.30244508 0.6153862 0.50522983 0.07638023 1.643868
0.7341552 0.104266346 0.4296665 0.053873457 1.2112595 0.037034407 0.6236339 0.08865436
0.46280295 0.05699643 0.07431571 -0.14681603 0.15598856 0.36650345 0.1383487 2.7956927
-1.2540498 0.04493668 0.43769708 0.32656997 1.0341102 0.13974546 1.1818057 -0.07623085
0.16704063 0.2408566 0.3127636 -0.413556 -0.48045126 -0.19622394 -0.0278206 0.11449438
-0.48289388 -0.24333306 -0.23677844 -0.23176196 0.15725854 0.021710021 0.53759795 -0.30327103
0.39731365 -0.3899493 0.13865744 0.3938726 0.045771636 -0.0041128634 -1.328973 -0.15570942
-1.4475107 -0.37676293 1.6453973 0.3673601 1.14508 -0.4572987 0.15913445 0.01914407
0.024730938 -1.296319
00000000: 5802 14be e852 1a3f 9dd2 0a3f 5e7d 803c
00000010: dbf7 2c3f e88e 8f3c 586a 733e 5ebb ba3e
00000020: ac6b a53e 6ec1 fe3e 9c71 dd3e abb1 0dbd
00000030: 2827 5dbe d9c3 153f d20a 15bb 7e43 983e
00000040: 93f1 7d3e 079d 4f3f 8934 333f 5085 113f
00000050: ca6e 373d e03b a83e 06f3 c4bd 8a6d 1a3e
00000060: 4c43 a3bd 735f 6f3d 6ea7 0bbe 15da 9a3e
00000070: f389 1d3f be56 013f 3d6d 9c3d 446a d23f
00000080: 98f1 3b3f 9889 d53d 3ffd db3e 6aaa 5c3d
00000090: 8d0a 9b3f 64b1 173d 79a6 1f3f 6b90 b53d
000000a0: 82f4 ec3e 1775 693d d632 983d f156 16be
000000b0: 77bb 1f3e 57a6 bb3e 48ab 0d3e a1ec 3240
000000c0: b484 a0bf 860f 383d d519 e03e 2e34 a73e
000000d0: b95d 843f 6f19 0f3e 6945 973f eb1e 9cbd
000000e0: b30c 2b3e 1da3 763e 8d22 a03e 9dbd d3be
000000f0: b5fd f5be eeee 48be 07e8 e3bc 087c ea3d
00000100: de3d f7be 4d2c 79be 0c76 72be 0253 6dbe
00000110: 6208 213e 37d9 b13c 05a0 093f 5746 9bbe
00000120: b26c cb3e 6fa7 c7be 37fc 0d3e aba9 c93e
00000130: 0a7b 3b3d 33c5 86bb ca1b aabf 4a72 1fbe
00000140: 0848 b9bf 12e7 c0be 619c d23f 9f16 bc3e
00000150: fb91 923f 0e23 eabe 24f4 223e 06d4 9c3c
00000160: 8998 ca3c c8ed a5bf

rnn.rnn.bias_hh_l0 f4 [90]
0.009239381 0.5434373 0.3711085 0.05979501 0.45532155 0.09455423 0.3034214 0.15142344
0.24974996 0.63129866 0.40519717 0.0027952057 -0.19538093 0.3900252 -0.15070276 0.10464198
0.016143689 0.7420232 0.7510588 0.3126623 0.055802036 0.5158538 -0.15183425 0.39729556
-0.05691844 0.05203954 -0.14357989 0.38181505 0.61565095 0.3811695 -0.07339896 1.4591318
0.39899063 0.0037668832 0.3160952 -0.04071033 1.3844776 0.13390929 0.32566097 0.17009212
0.4735104 0.079710916 0.007779939 -0.0870353 0.05301033 0.23258026 0.39622736 2.6847959
-1.2116033 0.36901996 0.4792752 0.17849168 0.9672336 -0.15352552 1.1185448 0.18111779
0.21094003 0.17712842 0.26773775 -0.28513122 -0.5326761 -0.18903059 -0.17058955 0.060882926
-0.23699477 0.5479522 0.12126345 -0.40050384 -0.41456345 -0.53633314 0.7605484 -0.085049465
0.9410968 -0.46765563 0.19265284 0.25850922 0.08826019 0.04600127 -0.88321364 -0.5088254
0.03774995 0.1720748 0.7322451 0.2708526 -0.56279504 -0.28893062 -0.6572381 0.95792675
-0.19271348 -0.59200776
00000000: c660 173c b51e 0b3f ef01 be3e 9deb 743d
00000010: e81f e93e a6a5 c13d 0d5a 9b3e bf0e 1b3e
00000020: 74be 7f3e ca9c 213f 0176 cf3e c52f 373b
00000030: f011 48be 62b1 c73e d351 1abe 894e d63d
00000040: c53f 843c 3cf5 3d3f 6445 403f 4615 a03e
00000050: ad90 643d ff0e 043f 707a 1bbe 536a cb3e
00000060: 4f23 69bd 6a27 553d 9b06 13be 437d c33e
00000070: 4d9b 1d3f a628 c33e 3252 96bd d5c4 ba3f
00000080: 8048 cc3e d0dd 763b 3bd7 a13e e0bf 26bd
00000090: 9036 b13f 841f 093e 09bd a63e a12c 2e3e
000000a0: f56f f23e 7a3f a33d dcee fe3b 903f b2bd
000000b0: 5c21 593d 8529 6e3e 50de ca3e b2d3 2b40
000000c0: d115 9bbf 2ff0 bc3e 8f63 f53e 86c6 363e
000000d0: 9f9c 773f cb35 1dbe 7a2c 8f3f f176 393e
000000e0: aa00 583e 2761 353e ec14 893e b8fc 91be
000000f0: 765d 08bf 3c91 41be 07af 2ebe 6060 793d
00000100: c2ae 72be 9846 0c3f f958 f83d d70e cdbe
00000110: a941 d4be 214d 09bf 4db3 423f 6a2e aebd
00000120: b8eb 703f 8f70 efbe c946 453e 525b 843e
00000130: c2c1 b43d d46b 3c3d 4a1a 62bf 6242 02bf
00000140: b19f 1a3d 6034 303e 6a74 3b3f 31ad 8a3e
00000150: 5613 10bf b7ee 93be c240 28bf b03a 753f
00000160: af56 45be d28d 17bf

rnn.fc.weight f4 [32, 30]
-0.5165984 0.276321 0.2765043 0.24314338 -0.54349506 0.40994197 -0.3601835 0.89887077
0.33550504 -0.33750743 0.21442017 -1.4270744 1.8419746 0.90004575 -0.09874313 -0.7004638
0.50842947 0.5936212 0.8173088 0.6687069 0.89210975 -0.35188577 -0.38326293 1.099783
-0.6055054 0.0433184 0.9964932 -0.04543771 0.2938659 0.044577856 0.04065201 0.73300195
0.6218702 -0.36013427 -0.20109646 0.4344718 -0.52933234 -0.6692653 -0.0639941 -0.31737646
-0.40696824 0.8562098 -0.020730725 0.12264476 0.07457918 -0.66192794 -0.6723071 0.6748825
0.6316304 0.58488303 0.35459322 0.09184961 -0.57267064 -0.49830896 -0.1499353 1.0625637
0.0253598 -0.13748471 0.30084276 0.81842226 0.09048507 0.27375823 0.2873233 -0.68936634
-0.15000865 0.1510169 -0.27651054 -0.35422066 0.14848056 -0.13599354 0.00270748 0.35332555
-0.50995195 -0.02815538 -0.12016624 -0.456212 -0.6520572 0.5222522 0.18308994 0.1824445
0.05677644 0.14293353 -0.05265144 -0.06835644 -0.15205206 0.5385883 -0.15501398 -0.39212844
0.025923427 0.55251634 0.413958 0.19202363 0.3092368 0.31036058 0.03177477 0.3161227
-0.16257572 0.53883976 0.2770228 -0.24181919 -0.11341656 0.29732534 -0.12619151 0.5537387
-0.17156681 -0.27786753 -0.04923604 0.3400197 0.48485744 0.30045336 0.17880984 0.055791844
-0.11118007 -0.3900831 -0.3334211 0.01839545 0.47239023 -0.44420516 0.35848194 0.14027657
-0.060103934 -0.7108241 -0.67245936 0.75931454 0.3215892 -0.08852002 0.65244204 1.5369457
0.1622145 0.20741247 -0.055973317 -1.4869275 0.36331686 0.2013864 -0.116461195 -0.07169623
1.8369948 -0.73405445 -1.2971276 -0.22278164 0.5229346 -0.59868526 0.3872387 0.41972
-0.15218945 -0.54818445 0.3960976 0.5327466 -0.06942275 0.20191056 -2.0544157 0.2396181
-0.92821956 -0.1484311 -0.5243965 0.044559192 -0.034742642 -0.00035405438 -0.598084 0.2756212
1.1818823 -0.41314527 -2.4325843 0.22585438 -0.69100964 -0.3742471 -0.2231663 -0.2744558
0.6811719 0.23773935 0.3437921 -0.3571231 -0.21301174 0.3656173 -0.15236084 0.1339819
-0.13963479 0.95142597 -0.32230446 0.16228035 0.09457463 0.25002345 0.14882804 -0.3307778
-0.021458773 0.16239297 -0.25491711 -0.02313334 0.40238023 -0.031383295 -0.36268702 0.09799087
-0.22630681 0.31639674 -0.441478 -0.26838282 -0.16931155 0.41716716 0.35124493 0.4744353
0.40561566 0.23959106 -0.2299015 -0.46709716 -0.27131683 0.5809538 0.31877366 -0.042196795
0.455857 0.5236602 0.42811838 -0.61533886 0.0055486388 -1.2811918 0.8433142 0.061447747
-0.14972232 -0.2849171 -0.19840382 0.115177445 -0.37917292 0.36742327 -0.03168733 0.1689165
0.015555085 1.1451942 -1.0405728 -0.24816169 -1.4500744 0.4856976 -0.5016714 -0.37009603
-0.31520355 -1.0717998 -0.10934247 1.2260844 0.34719047 0.67830545 0.317117 0.054737914
-0.2938115 -0.09920283 -0.010592642 -0.35217032 -0.20161423 -0.5298016 0.41212952 0.21791174
-0.40664428 -0.36383334 -0.048725996 0.4251979 -0.35021767 -0.52349174 0.66602665 0.42535314
00000000: cb3f 04bf f279 8d3e f991 8d3e 94fa 783e
00000010: 7e22 0bbf eae3 d13e f969 b8be 651c 663f
00000020: 51c7 ab3e c6cd acbe f690 5b3e 60aa b6bf
00000030: d3c5 eb3f 6669 663f d739 cabd 9851 33bf
00000040: 6f28 023f 8ff7 173f 263b 513f 6030 2b3f
00000050: 4e61 643f 5f2a b4be 0a3b c4be b0c5 8c3f
00000060: 6702 1bbf a26e 313d 2e1a 7f3f e41c 3abd
00000070: 9775 963e 4597 363d b982 263d 04a6 3b3f
00000080: e332 1f3f 8563 b8be 3bec 4dbe 1673 de3e
00000090: 5382 07bf f854 2bbf 570f 83bd 2b7f a2be
000000a0: 245e d0be 9130 5b3f 7bd3 a9bc 2d2d fb3d
000000b0: f8bc 983d 1c74 29bf 511c 2cbf 19c5 2c3f
000000c0: 88b2 213f e5ba 153f 3e8d b53e a61b bc3d
000000d0: 8b9a 12bf 5a22 ffbe a488 19be 1602 883f
000000e0: 5bbf cf3c cbc8 0cbe 1008 9a3e 1f84 513f
000000f0: 3d50 b93d 0a2a 8c3e 0a1c 933e 507a 30bf
00000100: de9b 19be 2da4 1a3e ca92 8dbe 695c b5be
00000110: 4a0b 183e e441 0bbe fa6f 313b 16e7 b43e
00000120: 368c 02bf 1da6 e6bc b819 f6bd 9f94 e9be
00000130: 38ed 26bf 52b2 053f ee7b 3b3e bbd2 3a3e
00000140: 6a8e 683d 2b5d 123e 09a9 57bd 76fe 8bbd
00000150: 89b3 1bbe ece0 093f fcbb 1ebe 0fc5 c8be
00000160: 5e5d d43c b671 0d3f 4ef2 d33e d8a1 443e
00000170: 4954 9e3e 95e7 9e3e 4326 023d d6da a13e
00000180: 407a 26be 67f1 093f efd5 8d3e 739f 77be
00000190: f146 e8bd 073b 983e 5938 01be d2c1 0d3f
000001a0: 36af 2fbe a744 8ebe bbab 49bd 1017 ae3e
000001b0: 3c3f f83e 06d5 993e ed19 373e fd85 643d
000001c0: 60b2 e3bd f9b8 c7be 2cb6 aabe 0eb2 963c
000001d0: 22dd f13e dc6e e3be f28a b73e a9a4 0f3e
000001e0: 8b2f 76bd 91f8 35bf 4c26 2cbf 7062 423f
000001f0: 57a7 a43e fc49 b5bd 7106 273f a3ba c43f
00000200: 8f1b 263e ef63 543e 4744 65bd a453 bebf
00000210: ab04 ba3e 3d38 4e3e 3583 eebd 79d5 92bd
00000220: a522 eb3f feea 3bbf 4708 a6bf df20 64be
00000230: 0bdf 053f 7043 19bf 2744 c63e 8ae5 d63e
00000240: 8dd7 1bbe d155 0cbf 4ecd ca3e 1562 083f
00000250: 842d 8ebd a4c1 4e3e 8c7b 03c0 725e 753e
00000260: cc9f 6dbf 53fe 17be d93e 06bf b383 363d
00000270: 4d4e 0ebd 60a0 b9b9 081c 19bf 391e 8d3e
00000280: eb47 973f c787 d3be 76af 1bc0 5f46 673e
00000290: 02e6 30bf 519d bfbe b585 64be 7885 8cbe
000002a0: 4861 2e3f f271 733e 8505 b03e d7d8 b6be
000002b0: c01f 5abe 3132 bb3e 7b04 1cbe 8d32 093e
000002c0: 6cfc 0ebe a790 733f 1705 a5be d22c 263e
000002d0: 58b0 c13d 1303 803e 6166 183e b55b a9be
000002e0: 4fca afbc 584a 263e 7f84 82be 2182 bdbc
000002f0: c804 ce3e c58b 00bd 1db2 b9be 70af c83d
00000300: f9bc 67be c1fe a13e 6809 e2be 7969 89be
00000310: 0260 2dbe ef96 d53e 60d6 b33e 2fe9 f23e
00000320: dbac cf3e 5c57 753e 4c6b 6bbe 5c27 efbe
00000330: 0aea 8abe 63b9 143f 4d36 a33e 8cd6 2cbd
00000340: 1766 e93e 980e 063f 5532 db3e d986 1dbf
00000350: 5bd1 b53b 18fe a3bf 70e3 573f a2b0 7b3d
00000360: cf50 19be a7e0 91be 5f2a 4bbe 27e2 eb3d
00000370: f422 c2be e71e bc3e 93ca 01bd 72f8 2c3e
00000380: c1da 7e3c b995 923f 7d31 85bf 191e 7ebe
00000390: 0a9c b9bf 5bad f83e 896d 00bf 3a7d bdbe
000003a0: 5c62 a1be bc30 89bf f2ee dfbd 55f0 9c3f
000003b0: f3c2 b13e 6da5 2d3f 295d a23e dd34 603d
000003c0: 766e 96be da2a cbbd c38c 2dbc ab4f b4be
000003d0: f673 4ebe 14a1 07bf a402 d33e 4124 5f3e
000003e0: ae33 d0be 5d48 babe e994 47bd 8ab3 d93e
000003f0: bb4f b3be 8e03 06bf b980 2a3f e3c7 d93e

rnn.fc.bias f4 [32]
0.10323489 0.030826204 -0.05429947 0.046477225 0.5222521 0.27494976 0.013380304 1.5921468
-0.7277875 0.022952285 -0.30238807 -0.10798489 0.24399531 0.2626115 -0.0070260875 -0.031178845
-0.1568135 0.17663632 -0.04183922 0.22034322 -0.31462538 -0.14487866 -0.5116696 -0.010527406
0.10248641 -0.062268432 -0.12262502 0.0248551 -0.16686934 0.15622929 0.12174411 -0.038847905
00000000: d06c d33d 3c87 fc3c 1f69 5ebd e75e 3e3d
00000010: 50b2 053f 37c6 8c3e 1039 5b3c 77cb cb3f
00000020: 4850 3abf 6e06 bc3c 9cd2 9abe 2f27 ddbd
00000030: e8d9 793e 0475 863e 183b e6bb c76a ffbc
00000040: b893 20be 27e0 343e 9a5f 2bbd a7a1 613e
00000050: 9416 a1be 125b 14be c7fc 02bf 247b 2cbc
00000060: 65e4 d13d 2f0d 7fbd d422 fbbd ec9c cb3c
00000070: ccdf 2abe 92fa 1f3e fa54 f93d fb1e 1fbd

rnn.fc_mean.weight f4 [3, 32]
-0.37268844 -0.29682985 -0.65198374 0.74345565 -1.1541827 0.48601028 -0.25969633 0.90376186
-1.3400977 -0.2519762 -1.79424 -0.76546425 0.20585728 -0.38303053 -0.20927517 -0.44083
0.72590524 0.67702705 -0.31630638 0.7951681 1.0357085 -0.61827785 -0.16619003 0.8640911
-0.32853553 -0.8901301 3.0003998 0.2761864 -0.21020827 0.46780005 -0.023675513 0.27880746
1.5013963 -0.7022739 -0.7598467 0.3596845 -1.8682408 0.85048455 -0.09830678 1.1677912
2.987676 -0.18680821 -1.4987159 0.023592185 -0.9326334 -0.3935784 -0.23389897 -0.43235964
0.9188263 0.4812221 -0.58243454 0.4081854 -0.51073086 -0.81487536 -1.5972364 0.5841112
-0.41382077 0.59406376 1.7107183 0.13373844 -0.90781003 0.15364881 -0.09670139 -0.75713325
1.1222246 0.7555152 0.26878947 0.3963499 -0.25770518 -0.52505815 0.4797228 -1.2907486
0.40798512 0.35245928 0.03386393 -0.029004686 -1.0073334 0.3473554 0.35341176 0.31730297
0.6180067 0.3013118 0.39196032 0.4670529 0.14560498 0.64945877 0.43951663 0.31965312
0.45710906 -0.6185237 -0.26316825 0.43413895 -0.2566812 0.36989427 0.43630737 -0.32598916
00000000: 05d1 bebe 15fa 97be 68e8 26bf 1c53 3e3f
00000010: 42bc 93bf 57d6 f83e ebf6 84be f05c 673f
00000020: 5288 abbf 0603 81be a8a9 e5bf 77f5 43bf
00000030: 40cc 523e 941c c4be 3b4c 56be 78b4 e1be
00000040: edd4 393f a551 2d3f e9f2 a1be 2390 4b3f
00000050: 1992 843f 7547 1ebf b82d 2abe 1335 5d3f
00000060: cf35 a8be 91df 63bf 8d06 4040 4e68 8d3e
00000070: d640 57be 7d83 ef3e 26f3 c1bc dabf 8e3e
00000080: c12d c03f 39c8 33bf 5085 42bf 9128 b83e
00000090: 8422 efbf 5bb9 593f 1155 c9bd 2f7a 953f
000000a0: 1536 3f40 a74a 3fbe ecd5 bfbf 6644 c13c
000000b0: 10c1 6ebf 1c83 c9be 3683 6fbe 3e5e ddbe
000000c0: 3338 6b3f be62 f63e 6e1a 15bf adfd d03e
000000d0: 42bf 02bf ac9b 50bf 3e72 ccbf 5088 153f
000000e0: 51e0 d3be 9014 183f d1f8 da3f bbf2 083e
000000f0: 3d66 68bf 1d56 1d3e 610b c6bd 7cd3 41bf
00000100: 0ea5 8f3f 7269 413f c69e 893e 60ee ca3e
00000110: eff1 83be 366a 06bf 3a9e f53e 4037 a5bf
00000120: 6de3 d03e 8b75 b43e e7b4 0a3d 3c9b edbc
00000130: 4df0 80bf 91d8 b13e 63f2 b43e 8975 a23e
00000140: b035 1e3f 8a45 9a3e 06af c83e 8f21 ef3e
00000150: 7919 153e ee42 263f 5308 e13e 93a9 a33e
00000160: 330a ea3e 9257 1ebf fdbd 86be 7647 de3e
00000170: b86b 83be c862 bd3e ae63 df3e 0de8 a6be

rnn.fc_mean.bias f4 [3]
0.03235995 0.34686294 0.09098363
00000000: de8b 043d 0598 b13e a055 ba3d

rnn.fc_vars.weight f4 [3, 32]
-0.73896366 -0.67959356 0.5971433 0.030210853 1.0690516 -0.040495742 0.13188161 6.9641547
-4.7745013 0.10156953 -1.0894687 3.9856422 1.6888435 0.5674551 3.7277467e-05 0.35149118
-0.6891425 0.3498197 0.61551 0.26131037 0.5918409 1.0213872 -2.005138 0.36016724
0.56224513 -0.48239398 -1.8528224 0.20090944 -1.9817365 0.39517075 0.257676 -0.7016382
0.6052942 0.36444056 0.7134242 0.71738636 -14.387697 0.9087275 0.9139904 -1.9003185
-8.359241 0.9086457 1.7542715 6.8542604 0.42146572 0.57560486 0.646012 0.6070318
-0.6100972 0.54885465 0.6846578 0.45941198 0.502435 0.67102605 -4.1808333 0.3014623
0.70615447 -2.6978302 -1.3809566 0.66018236 8.608543 0.7296321 0.39823765 -2.6523812
-0.52880126 0.21714741 0.7938853 0.22625023 3.7384865 5.922611 0.036141615 5.6205807
-1.0571636 -0.022747591 0.2890223 -6.906439 4.971749 0.5066069 0.143252 0.408493
-1.4135262 0.6305415 0.41347826 0.16196829 -0.77064806 0.34801713 1.0675114 0.44066453
0.32298335 -1.1983131 -0.58816195 0.357927 -1.6437758 0.23551907 0.3297518 -0.0056948797
00000000: b92c 3dbf d8f9 2dbf 62de 183f c07c f73c
00000010: afd6 883f ddde 25bd f90b 073e 5bda de40
00000020: b7c8 98c0 b003 d03d b673 8bbf c314 7f40
00000030: 062c d83f bd44 113f 605a 1c38 a7f6 b33e
00000040: a56b 30bf 911b b33e 1092 1d3f 79ca 853e
00000050: e382 173f d1bc 823f 2e54 00c0 d767 b83e
00000060: 4cef 0f3f 58fc f6be 4929 edbf 34bb 4d3e
00000070: 8ba9 fdbf d253 ca3e 1cee 833e 909e 33bf
00000080: 90f4 1a3f f497 ba3e f8a2 363f a2a6 373f
00000090: 0234 66c1 5ea2 683f 46fb 693f a33d f3bf
000000a0: 73bf 05c1 019d 683f f88b e03f 1a56 db40
000000b0: 5bca d73e d75a 133f 0b61 253f 7066 1b3f
000000c0: 552f 1cbf bd81 0c3f bc45 2f3f 0c38 eb3e
000000d0: 959f 003f 5dc8 2b3f 63c9 85c0 4459 9a3e
000000e0: 8ac6 343f 40a9 2cc0 30c3 b0bf b601 293f
000000f0: 98bc 0941 2bc9 3a3f cee5 cb3e 9dc0 29c0
00000100: 855f 07bf e45b 5e3e 113c 4b3f 24ae 673e
00000110: 5d43 6f40 0886 bd40 3b09 143d ccdb b340
00000120: 2351 87bf 2859 babc bbfa 933e 8c01 ddc0
00000130: 9118 9f40 fdb0 013f a7b0 123e ff25 d13e
00000140: 6dee b4bf 2b6b 213f 6cb3 d33e 04db 253e
00000150: 3149 45bf 4d2f b23e 37a4 883f c89e e13e
00000160: 135e a53e 5362 99bf c891 16bf 3542 b73e
00000170: 3f67 d2bf e92b 713e 3ad5 a83e 1d9c babb

rnn.fc_vars.bias f4 [3]
0.58514416 -0.16886048 0.3678239
00000000: 02cc 153f c3e9 2cbe 6a53 bc3e
