models/LorenzSSM_danse_opt_gru_m_3_n_3_T_1000_N_500_sigmae2_-10.0dB_smnr_-10.0dB/danse_gru_ckpt_epoch_671_best.pt (torch, 20799 bytes, 10 tensors)

rnn.rnn.weight_ih_l0 f4 [90, 3]
0	0x3d2d2a6d	0.04227679
1	0xbe61f8a1	-0.220675
2	0xbedfe5ba	-0.43729955
3	0xbd4e64ec	-0.050389215
4	0x3dbc78e0	0.092027426
5	0x3cd670f9	0.026176916
6	0xbf33cdb8	-0.70235777
7	0xbee91696	-0.45525044
8	0x3f1ce0ec	0.61280704
9	0x3f0d0e0f	0.55099577
10	0x3f2911d7	0.66042846
11	0x3f2f40c0	0.68458176
12	0x3d2869b6	0.04111644
13	0x3d7796ef	0.060446676
14	0xbfb5faf8	-1.4217215
15	0xbe783aad	-0.24241133
16	0xbf0d8328	-0.55278254
17	0x3e846b03	0.25862893
18	0x3f80230a	1.0010693
19	0xbe0abb05	-0.13547905
20	0xbdc135c1	-0.09434081
21	0xbef2f66f	-0.4745364
22	0x3db35503	0.08756449
23	0xbd5a3604	-0.05327417
24	0xbef080e5	-0.4697334
25	0x3ed684c3	0.41898164
26	0xbe00b1d1	-0.12567832
27	0xbd5a6cc2	-0.053326376
28	0xbf4e6ada	-0.8063179
29	0xbe429e7b	-0.19005768
30	0x3f233178	0.6374736
31	0xbe9336cd	-0.28752747
32	0xbf4d54d7	-0.8020758
33	0x3f4cfc53	0.80072516
34	0xbd45535c	-0.0481752
35	0x3f768f46	0.9631237
36	0xbf095c45	-0.5365642
37	0x3e88d910	0.26728106
38	0x3f33db1d	0.70256215
39	0xbe38608c	-0.1800558
40	0xbe537669	-0.20650639
41	0x3dbfca08	0.09364706
42	0x3e853b11	0.26021627
43	0xbf923128	-1.1421251
44	0x3ea6aa19	0.3255165
45	0xbf44eb4d	-0.7692154
46	0x3e469251	0.19391753
47	0xbdb719df	-0.089404814
48	0xbeb4a451	-0.35281613
49	0xbe567171	-0.20941712
50	0xbf9c9b02	-1.2234805
51	0x3e473284	0.19452864
52	0xbe5c2b2c	-0.21500844
53	0xbf4d752a	-0.80256903
54	0x3f0cd6aa	0.5501505
55	0x3f839dca	1.0282528
56	0xbd26d564	-0.04073085
57	0xbdcaa0da	-0.09893961
58	0xbf7fc827	-0.99914783
59	0xbe31e5d0	-0.17372823
60	0x3e29f989	0.16599096
61	0xbf48f315	-0.78495914
62	0xbe63f6d9	-0.22262134
63	0x3f2ca6d4	0.6744206
64	0xbeded6b6	-0.43523186
65	0xbe2b3ae4	-0.16721684
66	0xbf3bf186	-0.7341541
67	0xbde7c60e	-0.11317073
68	0xbf38ef80	-0.7224045
69	0x3f021dc6	0.5082668
70	0xbf8cf6e5	-1.1012846
71	0xbd85eed4	-0.065396935
72	0xbd23e5f8	-0.040014237
73	0xbfe4e6da	-1.788295
74	0xbd02cd7b	-0.031934243
75	0xbdc22217	-0.09479158
76	0x3ef17d5b	0.4716595
77	0xbf240bf9	-0.6408077
78	0xbdeeaf80	-0.11654568
79	0x3dc83bfe	0.097770676
80	0x3e026ee0	0.12737608
81	0xbe7f66bf	-0.24941538
82	0x3f849376	1.0357502
83	0x3ebffaf9	0.37496164
84	0x3e8dea0c	0.27717626
85	0x3dd004dd	0.101571776
86	0x3fcc8880	1.5979156
87	0x3e0ebab9	0.13938417
88	0xbe374954	-0.17899066
89	0x3cec0c01	0.028814318
90	0x3e704ba6	0.23466358
91	0xbc528ae1	-0.012850494
92	0x3e65ad31	0.22429349
93	0x38b1c368	8.476415e-05
94	0xbc21cbbb	-0.009875233
95	0xbbd7b12a	-0.006582399
96	0x3c325694	0.0108849
97	0xbcde37c6	-0.027126204
98	0xbc20526a	-0.009785274
99	0x3dc871fe	0.09787367
100	0x3eb6fd5d	0.35740176
101	0xbdafb821	-0.08580042
102	0x3e8109b6	0.2520272
103	0x3c4d0951	0.012514428
104	0x3c743cac	0.014907043
105	0xbe870bde	-0.2637624
106	0xbe9803e5	-0.2969047
107	0x3e9f6538	0.3113191
108	0x3d0d163e	0.03444504
109	0x3cc9f19b	0.02465134
110	0x3e95f27b	0.2928656
111	0xbbbd40b8	-0.0057755373
112	0xbd8d41f5	-0.06897346
113	0xbd957973	-0.07298555
114	0x3d65ac78	0.056072682
115	0x3df5d836	0.120041296
116	0xbebf8b2e	-0.37410873
117	0x3d60275d	0.05472504
118	0x3e63fc39	0.22264184
119	0xbcfb19d1	-0.030651959
120	0x3d69e97a	0.057107426
121	0xbcfbf4c3	-0.03075636
122	0x3e970dea	0.29502803
123	0x3f0a2a33	0.5397064
124	0xbe2ca1b5	-0.16858561
125	0xbe86014f	-0.26172873
126	0xbb90e406	-0.0044217138
127	0x3b31a506	0.0027106418
128	0xbd501f91	-0.050811354
129	0x3ab8d5f3	0.0014101848
130	0x3be48ea6	0.006975013
131	0xbad26842	-0.00160528
132	0xbd9bf524	-0.07615116
133	0xbd7af8d9	-0.061272476
134	0x3da77f3f	0.08178567
135	0xba7a07c7	-0.0009537902
136	0xbc2e2410	-0.010628715
137	0x39249a60	0.00015697768
138	0x3deabd96	0.11461942
139	0xbc6030d0	-0.013683513
140	0xbe8aaaec	-0.27083528
141	0xbc077141	-0.008266748
142	0x3e346ba9	0.17619194
143	0xbe3b2f07	-0.18279658
144	0xbd133e88	-0.035948306
145	0x3e92c0b8	0.28662658
146	0xbe8a119e	-0.26966566
147	0x3db195ae	0.08671127
148	0x3e9a513c	0.30140102
149	0x3e438cdd	0.19096704
150	0x39c92f14	0.00038372783
151	0x3c350d68	0.01105056
152	0xbc63a8a4	-0.0138951875
153	0xbd8d0d12	-0.068872586
154	0x3ee05689	0.4381602
155	0x3d66c1d6	0.0563372
156	0x3e290e64	0.16509396
157	0x3e9d7017	0.3074958
158	0xbf903128	-1.1265001
159	0xbe7e39f3	-0.24826793
160	0xbe0c4cee	-0.13701221
161	0x3e938313	0.2881094
162	0xbe8cb17b	-0.27479157
163	0x3e61af07	0.22039424
164	0x3d5e67af	0.0542981
165	0x3ead8fb3	0.33898696
166	0xbf0c3c46	-0.5477947
167	0x3e3a1cc3	0.18175034
168	0x3c96522e	0.018349733
169	0xbc0fdfce	-0.008781387
170	0xbc657af9	-0.01400637
171	0x3eb2fc8f	0.34958312
172	0xbe6f2160	-0.23352575
173	0x3c973bbf	0.018461106
174	0x3c841fd7	0.016128464
175	0xbdea1db4	-0.11431447
176	0x3c558d97	0.013034246
177	0xbd4252bc	-0.047442183
178	0x3d6b3bca	0.057430066
179	0xbc88ca6c	-0.016698085
180	0x3f4a5284	0.7903216
181	0xbdadbf89	-0.08483798
182	0x3db268f3	0.08711424
183	0x3a24274d	0.000626196
184	0x3e498eaa	0.19683328
185	0x3dedc493	0.11609759
186	0x3e3d0340	0.18458271
187	0x3dc3e660	0.09565425
188	0x3cbbd105	0.022926817
189	0x3e34c530	0.17653346
190	0x3dd849d0	0.105609536
191	0xbf94e2c3	-1.1631702
192	0xbed7ce73	-0.42149696
193	0x3f388724	0.7208121
194	0x3e04255d	0.12904878
195	0xbd368bb4	-0.044566825
196	0xbf24e2e3	-0.644087
197	0x3c4c9c00	0.012488365
198	0x3e0aea85	0.13566025
199	0xbe90cade	-0.28279775
200	0xbf514e40	-0.81760025
201	0x3d0a8b2b	0.033824127
202	0x3d11ca9c	0.035593614
203	0x3d110515	0.035405237
204	0x3e2286fa	0.15871802
205	0x3e35945c	0.17732376
206	0xbea4a6b0	-0.32158422
207	0xbe759044	-0.23980814
208	0x3eb3947f	0.3507423
209	0xbe5ee1b6	-0.2176579
210	0xbe9d1a86	-0.30684298
211	0x3da8fd24	0.08251408
212	0xbebb8f6a	-0.36632854
213	0x3e3a9e95	0.18224557
214	0x3e27a63d	0.16372009
215	0xbf4d3b76	-0.80168855
216	0x3deccafd	0.115621544
217	0x3c9943ec	0.018709145
218	0xbf948929	-1.1604358
219	0x3cc39bb2	0.023877952
220	0x3cea71eb	0.028618773
221	0xbc6ab892	-0.014326232
222	0x3f47ea73	0.78092116
223	0xbc369400	-0.011143684
224	0x3f0ab2a5	0.5417884
225	0xbcdf4aef	-0.02725741
226	0xbe94e5eb	-0.29081663
227	0x3e62917f	0.22125815
228	0xbed5ae93	-0.41734752
229	0xbd8c5e19	-0.06853885
230	0x3f1f45a1	0.6221562
231	0xbdf0f15b	-0.11764785
232	0xbed4d11f	-0.41565797
233	0x3f5d96f9	0.8655849
234	0xbe97f4a1	-0.29678825
235	0x3eef22f4	0.46706355
236	0xbf361ad4	-0.71134686
237	0x3e373959	0.1789297
238	0xbe55a29b	-0.2086281
239	0xbe305d40	-0.17223072
240	0x3e360008	0.1777345
241	0x3eb320ff	0.34986112
242	0xbd7aa670	-0.061193883
243	0xbe90c198	-0.282727
244	0x3e98f1fe	0.29872125
245	0xbe910d5e	-0.2833051
246	0x3cb7d1d7	0.022438927
247	0xbd8536a1	-0.0650456
248	0x3f9ef65c	1.2418933
249	0x3f78dd99	0.9721313
250	0x3e14ee98	0.14544141
251	0xbdd15ac9	-0.10222394
252	0xbef67a79	-0.48140314
253	0xbeca37c5	-0.39495674
254	0x3e7e37a7	0.24825917
255	0x3ec5c9e5	0.38630596

rnn.rnn.weight_hh_l0 f4 [90, 30]
0	0xbff24bd4	-1.8929391
1	0x3cf4d093	0.029884612
2	0x3f4bf445	0.796696
3	0xc064a1e7	-3.5723817
4	0x3fb1468d	1.3849655
5	0xbe667905	-0.22507103
6	0xbdd60625	-0.10450391
7	0x3fb5aa37	1.419257
8	0xbf562e0c	-0.8366401
9	0xbe957bb6	-0.29195946
10	0x3f835d86	1.0262916
11	0xbe94a8ed	-0.2903513
12	0xbfbdc0ff	-1.4824523
13	0xbfc4507f	-1.5337065
14	0x3fd744fc	1.6817927
15	0x3ee22e28	0.4417584
16	0x3fdaad8d	1.7084213
17	0x3f8e81b5	1.1133333
18	0xc0212946	-2.5181441
19	0xbedcff18	-0.4316337
20	0xbf865e2b	-1.0497488
21	0xbfbf7772	-1.4958327
22	0xbf5de7d8	-0.8668189
23	0x3f0846fd	0.5323332
24	0x40291653	2.6419876
25	0xc01328bc	-2.2993612
26	0x3f9db1a7	1.231984
27	0x401d2902	2.455628
28	0xbf9f3e06	-1.2440803
29	0x3fd057e9	1.6276828
30	0xbe596967	-0.21231614
31	0x3f6c3d07	0.9228062
32	0xbc80a5fb	-0.015704146
33	0xbd1c58bc	-0.03817056
34	0xbde83c1e	-0.113395914
35	0xbf8ab0dc	-1.0835223
36	0xbe31cea1	-0.17363979
37	0xbf9d088d	-1.2268234
38	0xbf44c128	-0.76857233
39	0xbf8f2b87	-1.1185158
40	0xbee37df7	-0.4443204
41	0xbf8c7f4b	-1.0976347
42	0x3fb1c808	1.388917
43	0x3f7267ea	0.9468981
44	0x3ff4b7f5	1.9118639
45	0xbf8cd77d	-1.1003262
46	0xbd89fd37	-0.0673775
47	0xbce17741	-0.027522685
48	0xbfb7241d	-1.4307896
49	0x402c0110	2.6875648
50	0xbf9cb46d	-1.2242562
51	0xbeae6b31	-0.34066156
52	0xbe86cedc	-0.26329696
53	0x3e9ef5c4	0.3104688
54	0xbfab8588	-1.3400126
55	0x3ff5761e	1.9176672
56	0xbf661565	-0.89876395
57	0x3ed52be8	0.4163506
58	0xbf045cca	-0.51704085
59	0x3f687afe	0.9081267
60	0x3f22ac29	0.63543946
61	0xc00fd926	-2.2476287
62	0x3e2c4895	0.16824563
63	0xbeafeef7	-0.34362003
64	0xbf7dc231	-0.9912444
65	0x3ee3c02c	0.44482553
66	0xbf1d97e6	-0.61559904
67	0xbf12f48f	-0.57404417
68	0xbdc5eef4	-0.09664717
69	0xbef5d155	-0.4801127
70	0xbf421138	-0.75807524
71	0x3f458240	0.7715187
72	0x3f85a9d1	1.0442449
73	0x3f4c21bf	0.7973899
74	0x3f87cc4d	1.0609223
75	0xc0210001	-2.5156252
76	0xbfd87532	-1.6910765
77	0xbf4d8d7e	-0.80294025
78	0xbf179a93	-0.59220237
79	0x3eda6c15	0.42660585
80	0x3fa79b88	1.3094339
81	0x40347463	2.8196037
82	0xbf8ba877	-1.0910786
83	0x3f092432	0.53570855
84	0x3fd60851	1.6721288
85	0xbd2c7190	-0.04210049
86	0x40a79e64	5.238085
87	0xbfcbf35b	-1.5933641
88	0xbf0c1abc	-0.54728293
89	0xbf134c33	-0.57538146
90	0xbf1dc846	-0.6163372
91	0xbf076016	-0.5288099
92	0x3fc572df	1.5425681
93	0x4018054e	2.3753238
94	0x3fca10f6	1.5786426
95	0xbe95db84	-0.2926904
96	0x3d42b195	0.047532637
97	0x3eb2f544	0.34952748
98	0xbf908836	-1.1291568
99	0xbeb6bb72	-0.35689884
100	0x3e3bc608	0.18337262
101	0xbf8a9843	-1.0827717
102	0xbddb5938	-0.107103765
103	0xbfd23699	-1.6422912
104	0x3feaa9e3	1.8333095
105	0xbfad1710	-1.3522663
106	0xbf8516d8	-1.0397596
107	0x3f373572	0.71565926
108	0xbf169fef	-0.5883779
109	0xbe688fe9	-0.22711147
110	0xbd15f0c7	-0.036606576
111	0x3e86b57f	0.26310346
112	0xbf3fb52c	-0.7488582
113	0xbe495d35	-0.19664462
114	0x3e4e98cd	0.20175476
115	0xbe92f071	-0.28699067
116	0x3ff69ac8	1.9265985
117	0x3f39bb62	0.7255155
118	0xbf21f228	-0.63260126
119	0xbf5d2e44	-0.8639872
120	0x3f2ed028	0.6828637
121	0x3d3e29bc	0.04642652
122	0x3f6da812	0.9283458
123	0x3f366e7d	0.7126234
124	0x3f2ab6b9	0.6668506
125	0x3ebbbee8	0.36669087
126	0xbf0f1cbf	-0.5590324
127	0x3f4d13e0	0.8010845
128	0xbe7821fe	-0.24231717
129	0xbe52a082	-0.20569041
130	0xbf184a40	-0.59488297
131	0xbd9fe335	-0.07807008
132	0x40233864	2.5503168
133	0x3c889c87	0.0166762
134	0xbf0f5bc1	-0.5599938
135	0x40066803	2.1000984
136	0x3ddf2cf4	0.10897246
137	0xbf84f1f7	-1.0386342
138	0x3f9c21fc	1.2197871
139	0xbdc9f593	-0.09861293
140	0xbf70ce9d	-0.94065267
141	0x3e8c4631	0.27397302
142	0xbf8d8b3a	-1.1058114
143	0x3f41c722	0.7569448
144	0x3fd0ba83	1.6306919
145	0x3f0e11af	0.55495733
146	0x3ea15160	0.31507397
147	0x3f996fc4	1.1987233
148	0x3e548700	0.20754623
149	0xbf3c3e66	-0.7353271
150	0xbfc1c795	-1.5139033
151	0xbe11f79a	-0.14254609
152	0x4013d33d	2.309768
153	0xbf19b372	-0.60039437
154	0x3fe9205e	1.8213003
155	0xbfbecce2	-1.4906275
156	0x3f8c5229	1.0962573
157	0x3f83960b	1.0280164
158	0xbfb0d843	-1.3815998
159	0x3f7810c1	0.96900564
160	0x3ea92682	0.33037192
161	0xbfa055be	-1.2526166
162	0x3f3d6375	0.73979884
163	0xbf05f6ed	-0.52329904
164	0x3fb80f0c	1.4379592
165	0xbff9d60d	-1.9518448
166	0x3f389fb5	0.72118694
167	0xbd665941	-0.056237463
168	0xc0166cca	-2.35039
169	0x3f8cb096	1.099139
170	0x4009e380	2.1545105
171	0x40099c6d	2.1501725
172	0x401ad3ce	2.4191775
173	0xbd52f30b	-0.051501315
174	0xbef382e3	-0.47560796
175	0x3e479ece	0.19494173
176	0x3fcfadaf	1.6224879
177	0x3f477ad1	0.7792178
178	0xbf2b643c	-0.6694982
179	0xbf70c4e3	-0.94050425
180	0xbfaaaea6	-1.3334548
181	0x3f76b379	0.96367604
182	0xbfac71e8	-1.3472261
183	0x3fba3bab	1.4549459
184	0xc0404f34	-3.0048342
185	0xbfd62b6b	-1.6732
186	0x3e797187	0.24359713
187	0xbf6cf10b	-0.925553
188	0xbdcd5258	-0.100254714
189	0x3dbcdc31	0.09221686
190	0x3f40bdd6	0.75289667
191	0x400b565b	2.1771457
192	0x3ec37423	0.38174543
193	0xbf2b7de2	-0.66988957
194	0x3f2eacfb	0.682327
195	0xbfb97e7e	-1.4491727
196	0xbf1a01a6	-0.60158765
197	0x402d7276	2.7101111
198	0xbfc71b3e	-1.5555189
199	0x3f25b969	0.6473604
200	0x3f5e091b	0.86732644
201	0x402be75f	2.6859968
202	0xbfe37bd3	-1.7772163
203	0xbf0c39de	-0.547758
204	0x3f942b92	1.1575797
205	0xc020382a	-2.503428
206	0xc066ba93	-3.6051376
207	0xbfa5f239	-1.2964545
208	0x3f27ddf4	0.6557305
209	0xbf7bb0e7	-0.98316807
210	0xbf8209cf	-1.0159243
211	0x4024de37	2.576063
212	0xbde38192	-0.11108698
213	0xc02052f9	-2.5050642
214	0x3f9541c7	1.1660699
215	0xc05c42f7	-3.4415872
216	0x3faba0fd	1.3408505
217	0xbec61550	-0.38688135
218	0xbf98ffce	-1.1953065
219	0x3f722930	0.945941
220	0x3f9882df	1.1914939
221	0x3f752f0b	0.95774907
222	0xc012e9ef	-2.2955282
223	0xbe91155d	-0.2833661
224	0x402e5029	2.7236426
225	0xbf496bc0	-0.7868004
226	0x40442850	3.0649605
227	0x3fd25239	1.6431342
228	0xbfe18b83	-1.7620701
229	0x3f10e2f3	0.565963
230	0x403100c7	2.7656724
231	0x3f16a598	0.58846426
232	0xbf61b550	-0.88167286
233	0x3fb81c3f	1.438362
234	0xbf8c5784	-1.0964208
235	0x3ee31096	0.44348592
236	0xbda16506	-0.07880597
237	0x3fedaff8	1.8569326
238	0xbdbd131e	-0.09232162
239	0xbf8c50f2	-1.0962203
240	0xbfc9b3da	-1.5758011
241	0xbfc3fef5	-1.5312182
242	0xbe536771	-0.20644929
243	0xbfaf8acc	-1.3714232
244	0x3e2ffd53	0.1718648
245	0xbd89f26a	-0.0673569
246	0x3f1042b9	0.5635181
247	0xbf7c87ff	-0.98645014
248	0xbfeaf2d1	-1.8355352
249	0xbf9d6481	-1.2296296
250	0x3eabcae6	0.33553237
251	0xbfd701ca	-1.6797421
252	0xbec9798f	-0.39350554
253	0xbf447025	-0.7673362
254	0x3feeea3c	1.8665233
255	0xbefd9398	-0.49526668

rnn.rnn.bias_ih_l0 f4 [90]
0	0xbed4ccf6	-0.41562623
1	0x3f44ba6b	0.7684695
2	0xbca76094	-0.020431794
3	0x3e8045cf	0.2505326
4	0xbccd1e36	-0.02503882
5	0x3e35974e	0.177335
6	0x3ecf5e86	0.40501803
7	0x3fc51ca4	1.5399365
8	0x40027b59	2.0387785
9	0x3ead01de	0.33790487
10	0x3f754d76	0.9582132
11	0x3faab0c6	1.3335197
12	0x3e70194f	0.23447154
13	0xbf974b6a	-1.181989
14	0xbd0f0146	-0.034913324
15	0xbf469257	-0.77567047
16	0xbf2a42bf	-0.66508096
17	0xbf2f9a4e	-0.68594825
18	0x3dbb9df6	0.09160988
19	0x3efa9212	0.48939568
20	0x3e8d0624	0.27543747
21	0x3dcb7c1e	0.09935783
22	0xbe44c0e1	-0.19214202
23	0xbe56908e	-0.2095358
24	0x3f40d325	0.7532218
25	0x3fbb5a3a	1.463691
26	0x3e466ac3	0.19376664
27	0xbe9768f6	-0.29572266
28	0x3ec45742	0.38347822
29	0xbf205cff	-0.626419
30	0x407c09c1	3.9380953
31	0x3eaa7743	0.33294114
32	0xbac5cf6c	-0.0015091724
33	0x3f0b3b8d	0.5438774
34	0xbe8f3034	-0.27966464
35	0xbf01aa33	-0.5065033
36	0x401404db	2.3127964
37	0xbe39b1b3	-0.18134193
38	0x3fa277f5	1.2692858
39	0x4022f233	2.5460327
40	0x3ea9474b	0.33062205
41	0x3fa7e849	1.3117763
42	0xbe52d7bf	-0.20590113
43	0x3e7c70a5	0.24652345
44	0xbe4e22bd	-0.20130439
45	0xbf1a61db	-0.60305566
46	0x3fa50223	1.2891277
47	0x3fa13889	1.2595378
48	0x3e8aa6af	0.27080294
49	0x3fd94817	1.6975125
50	0xbebff9f5	-0.3749539
51	0xbf9d25f5	-1.2277209
52	0xbd4b6e34	-0.049665645
53	0x3fbca5ad	1.473806
54	0xbf1677d2	-0.5877658
55	0x3e5b59d4	0.21420985
56	0x3ecdb3a7	0.40176126
57	0x3f376111	0.71632487
58	0x403ae5bf	2.9202726
59	0x3eceddd9	0.4040363
60	0xbf59162f	-0.84799474
61	0xbeb7e7ba	-0.3591898
62	0xbf0359b5	-0.5130876
63	0xbfe2077b	-1.7658533
64	0x3e9786dd	0.2959508
65	0xbcd539dc	-0.026028566
66	0xc0090d37	-2.1414316
67	0xbfb1863f	-1.3869094
68	0x3f1c24d3	0.6099369
69	0x3f56823b	0.83792466
70	0xbfc33bd5	-1.5252634
71	0x3dab9b8c	0.083792776
72	0x4056033b	3.3439472
73	0x3e52caee	0.20585224
74	0xbff3f59e	-1.9059331
75	0xbeefd909	-0.46845272
76	0x3f4845ea	0.7823168
77	0xc030fe3d	-2.7655175
78	0xbf8ed184	-1.1157689
79	0xbd54ab77	-0.051921334
80	0x3fe323e5	1.7745329
81	0x3fd65b16	1.6746547
82	0xbbbe86cd	-0.0058144093
83	0xbf3151fd	-0.6926573
84	0xbebdd498	-0.3707626
85	0xbce6ae97	-0.028159423
86	0xbfe29d5a	-1.770427
87	0xc00d16bc	-2.2045126
88	0x4002cbce	2.0436893
89	0xc0249bd3	-2.5720108

rnn.rnn.bias_hh_l0 f4 [90]
0	0xbf1b9660	-0.6077633
1	0x3f5a40c6	0.85255086
2	0xbdb3c5c6	-0.08777957
3	0x3c98ff19	0.018676328
4	0x3c942834	0.018085577
5	0x3e9407e4	0.2891227
6	0x3e95e7e9	0.29278496
7	0x3fc4322c	1.5327811
8	0x40101fb6	2.2519355
9	0x3ed48339	0.41506365
10	0x3f7dc261	0.99124724
11	0x3fb72bf2	1.4310286
12	0x3e89be73	0.26903114
13	0xbfa15ac9	-1.260583
14	0xbc6b81fc	-0.014374252
15	0xbf545b81	-0.82952124
16	0xbf6c5bf7	-0.9232783
17	0xbf26174e	-0.6487931
18	0x3e91ffde	0.28515524
19	0x3ef078eb	0.46967253
20	0x3db0dada	0.086354926
21	0xbddea80f	-0.108718984
22	0xbe492101	-0.19641496
23	0xbe66f842	-0.2255564
24	0x3f09ce74	0.5383065
25	0x3fbf2a31	1.4934751
26	0xbdf4834a	-0.11939104
27	0xbef3d78f	-0.47625396
28	0x3ed70e18	0.4200294
29	0xbf1446e3	-0.57920665
30	0x40815b14	4.042368
31	0x3ea54251	0.32277158
32	0xbe208c4a	-0.15678516
33	0x3f4cfc07	0.80072063
34	0xbea153c8	-0.31509233
35	0xbeb5a1ca	-0.35474998
36	0x40099427	2.1496675
37	0xbe480a2e	-0.19535133
38	0x3f9de5fa	1.2335808
39	0x401aa4c9	2.4163077
40	0x3edf9e74	0.43675578
41	0x3fb43dae	1.4081323
42	0xbdf47fac	-0.11938414
43	0x3ea6118c	0.32435262
44	0xbed2bb2b	-0.41158423
45	0xbef0c077	-0.4702184
46	0x3f91ff21	1.1405984
47	0x3f99bad3	1.2010139
48	0x3d1462e7	0.036227133
49	0x3fd2b05a	1.6460068
50	0xbe55c755	-0.2087682
51	0xbfa113b9	-1.2584144
52	0x3e76cd7e	0.24101827
53	0x3fb19bbe	1.3875654
54	0xbe9b090c	-0.3028034
55	0x3e49ecbe	0.19719216
56	0x3ec275e3	0.37980565
57	0x3f05ce79	0.5226818
58	0x40506eb6	3.2567573
59	0x3ec4bf78	0.3842733
60	0xbfb9e341	-1.4522477
61	0xbe097b23	-0.13425879
62	0xbe7dc4de	-0.2478213
63	0xc0048b50	-2.071003
64	0x3fea3066	1.829602
65	0x3e61912d	0.22028036
66	0x3edbdcc5	0.4294187
67	0xbf0fde4a	-0.5619856
68	0x3f6622a4	0.8989661
69	0x3f9b786b	1.2146124
70	0xbed7f3fd	-0.42178336
71	0xbfba14b7	-1.4537572
72	0xbe933a09	-0.28755215
73	0x3f2d9ccb	0.6781737
74	0x3f85349c	1.040668
75	0x3d244f62	0.040114768
76	0x3ff27b42	1.8943865
77	0xbf7814b8	-0.96906614
78	0xbfc07492	-1.5035574
79	0xbf1447bb	-0.5792195
80	0x3f379133	0.7170593
81	0xbee13e2e	-0.43992752
82	0x3fc77629	1.5582935
83	0xbf80ed11	-1.0072347
84	0xbe0d6f59	-0.13812007
85	0x3eac4925	0.33649555
86	0xbf3696a2	-0.713236
87	0xbf005372	-0.5012733
88	0x3fac5476	1.3463275
89	0xbffb62e5	-1.9639555

rnn.fc.weight f4 [32, 30]
0	0xbe436cfb	-0.19084541
1	0xc05250c6	-3.28618
2	0xbf021d8a	-0.50826323
3	0x3e5afc89	0.21385397
4	0xbf306abe	-0.68912876
5	0xbe6497e1	-0.22323562
6	0x3f667aea	0.900313
7	0x3c6a7274	0.014309514
8	0x3ebe2e25	0.3714458
9	0xbe51c824	-0.20486504
10	0x3ddd78da	0.10814066
11	0xbe151f53	-0.1456273
12	0x3e6a014a	0.22852054
13	0xc0323eea	-2.78509
14	0xbe3d6e7d	-0.18499179
15	0xbeeec83e	-0.46637148
16	0xbe9722df	-0.29518792
17	0x3e96face	0.29488224
18	0x3c565176	0.013080945
19	0x3d19b75c	0.03752838
20	0x3dcab0fa	0.09897037
21	0xbde6a1d5	-0.11261336
22	0x3ef11f2b	0.47094092
23	0xbe6ff26e	-0.23432323
24	0xbe444701	-0.19167711
25	0xbe9ebb84	-0.31002438
26	0xbfc92098	-1.5713072
27	0xbd35fefd	-0.04443263
28	0xbed1cc1c	-0.40976036
29	0xbe51a620	-0.20473528
30	0xbf4a2ce2	-0.78974736
31	0xbc14229e	-0.0090414565
32	0x3eadcbce	0.33944553
33	0xbe484c28	-0.19560301
34	0x3d62b0a4	0.05534424
35	0xbf25b415	-0.6472791
36	0xbe800186	-0.25001162
37	0xbf39b445	-0.72540694
38	0xbcf4db57	-0.029889746
39	0x3e97e665	0.29667965
40	0x3f261c14	0.64886594
41	0x3e55c109	0.20874418
42	0x3f795527	0.9739556
43	0x3eda2eb3	0.42613754
44	0xbc26a0f4	-0.01017021
45	0xbf496322	-0.7866689
46	0x3e998404	0.29983532
47	0xbea122f9	-0.31471995
48	0x3ce08332	0.027406309
49	0xbd2eea77	-0.04270407
50	0xbdd181d1	-0.10229839
51	0xbf04cf90	-0.51879215
52	0xbd2eb0a9	-0.042648945
53	0x3f9cd220	1.2251625
54	0xbed97c52	-0.4247766
55	0x3e63c480	0.22242928
56	0xc0581173	-3.376065
57	0xbf26f2ad	-0.65214044
58	0x3efb2a1f	0.49055573
59	0x3f11e2a3	0.56986445
60	0xbec59b12	-0.38594872
61	0x3e94b91a	0.2904747
62	0xbc3d4fde	-0.011554686
63	0xbedc94c8	-0.4308226
64	0xbd9b0b60	-0.07570529
65	0x3dd47f5c	0.103758544
66	0x3ef839bf	0.48481557
67	0x3c4264a9	0.01186482
68	0xbe2f6246	-0.17127332
69	0xbe8f5ad1	-0.27998975
70	0x3e908f09	0.28234127
71	0xbef509c8	-0.47859025
72	0xbedaf554	-0.42765296
73	0xbec838cc	-0.39105833
74	0x3e6d8cc3	0.23198228
75	0x3ef6f31c	0.48232353
76	0x3e43d349	0.19123568
77	0xbe1e6044	-0.1546641
78	0xbe01cff9	-0.12676992
79	0x3e59cc2c	0.21269292
80	0xbedf0c4f	-0.43564078
81	0xbe658870	-0.22415328
82	0x3ea2e1f8	0.31813025
83	0xbeaf2c59	-0.34213522
84	0x3eadef48	0.3397162
85	0x3b8d9435	0.004320646
86	0x3f15cb2b	0.58513135
87	0xbe2b3a30	-0.16721416
88	0xbed078be	-0.4071712
89	0xbe5c6f8c	-0.21526927
90	0xbaaf9f00	-0.0013398826
91	0x3e416cc7	0.18889152
92	0xbf366ca4	-0.7125952
93	0xbe942fb1	-0.28942636
94	0xbd891c7a	-0.066948846
95	0xbe354538	-0.17702186
96	0x3e2bf013	0.167908
97	0x3e8329e9	0.25617912
98	0xbeba5b19	-0.36397627
99	0x3db6ff90	0.089354634
100	0x3efad88d	0.4899334
101	0x3e1083e6	0.14112815
102	0xbf095aba	-0.5365406
103	0xbf3754fc	-0.7161405
104	0x3d7b4ef9	0.06135461
105	0x3f029d3a	0.5102116
106	0x3f5a7b25	0.85344154
107	0xbe196b99	-0.14982451
108	0x3ec72c8c	0.38901174
109	0x3ddb767b	0.10715958
110	0x3ea203cb	0.3164352
111	0xbe198805	-0.14993294
112	0xbe4b2979	-0.1984004
113	0xbe3881d4	-0.18018275
114	0xbe57a9a1	-0.21060802
115	0x3e636ee3	0.22210269
116	0x3f4b8aef	0.7950887
117	0xbeda3ab7	-0.4262292
118	0xbf148caa	-0.58027136
119	0x3e43e3e3	0.191299
120	0xbed98c97	-0.42490074
121	0xbdb9914a	-0.09060915
122	0x3e5285a8	0.20558798
123	0xbdc7dae2	-0.097585455
124	0x3e341515	0.17586167
125	0xbe0201a4	-0.12695938
126	0x3f1625f5	0.5865167
127	0x3eab90f8	0.3350904
128	0xbea54460	-0.32278728
129	0xbecd4ae8	-0.4009621
130	0x3dc4f656	0.09617297
131	0xbeded146	-0.43519038
132	0xbeb40077	-0.35156605
133	0xbf68bf1f	-0.9091663
134	0xbe8e160b	-0.27751192
135	0x3d95f88d	0.07322798
136	0xbd05b8f9	-0.032647107
137	0x3e8cb2be	0.2748012
138	0xbe27c229	-0.1638266
139	0x3ed22730	0.41045523
140	0xbed67a6c	-0.41890275
141	0x3e44183c	0.1914987
142	0x3ec1f1d7	0.37879822
143	0xbcbfbb11	-0.02340463
144	0x3c723030	0.014781997
145	0xbd9c62a2	-0.07636
146	0x3f21462b	0.6299769
147	0xbd7d7ce3	-0.06188668
148	0xbf36095b	-0.71108025
149	0x3cd9a085	0.0265658
150	0xbf054225	-0.52054054
151	0x3f6d525c	0.92703795
152	0x3e58d63d	0.21175475
153	0x3e2cabe3	0.16862445
154	0xbd8e3a88	-0.06944758
155	0x3dd301f4	0.10303107
156	0xbdb77229	-0.08957321
157	0xbe6924ac	-0.22767895
158	0xbf19be63	-0.6005613
159	0x3e61d424	0.22053581
160	0x3f032b86	0.51238286
161	0xbee044ee	-0.4380259
162	0x3f3db55f	0.74104875
163	0x3fe1055a	1.7579758
164	0x3e7f282b	0.24917667
165	0xbc4ca00f	-0.012489333
166	0x3f36dc45	0.71429855
167	0x3ef0b9d2	0.4701677
168	0xbcf41d85	-0.029799232
169	0x3f1b6043	0.6069376
170	0xbf0985c6	-0.5371975
171	0x3e99d96d	0.30048695
172	0x3f256b76	0.646171
173	0x3b700dec	0.0036629392
174	0x3ea2ff74	0.3183552
175	0xbe9cdfc8	-0.30639482
176	0xc03a1494	-2.907506
177	0x3ec3405e	0.38135046
178	0xbebc295c	-0.36750305
179	0x3fa1d298	1.2642393
180	0x3fa34a34	1.275702
181	0x3e87842f	0.26468036
182	0x3e772e11	0.24138667
183	0xbe58524f	-0.21125148
184	0x3f0e64f1	0.55622774
185	0xbf3818c2	-0.7191278
186	0xbf04a630	-0.5181608
187	0xbe82c891	-0.25543645
188	0x3e13cd9d	0.14433904
189	0x3ea7d683	0.32780847
190	0xbfbb4694	-1.4630914
191	0x3d681a9d	0.056666005
192	0x3ec02d6a	0.37534648
193	0xbe128c56	-0.14311346
194	0xbf1577c0	-0.5838585
195	0xbe15ce96	-0.14629588
196	0x3f13c66c	0.5772464
197	0xbf02bd2e	-0.51069915
198	0xbebc0c38	-0.36728072
199	0xbf4d733e	-0.8025397
200	0x3e5a1eac	0.21300763
201	0x3e0e16a9	0.13875832
202	0x3f4c77a6	0.7987007
203	0x3eb9c93e	0.36286348
204	0x3efb5b3c	0.49093044
205	0xbf8b6894	-1.089129
206	0xbee265be	-0.44218248
207	0x3fd71c0c	1.6805434
208	0x3fdf8310	1.7461872
209	0xbf8e5081	-1.1118318
210	0x3d26c809	0.040718112
211	0x3d919ae8	0.07109624
212	0xbe7c2957	-0.24625145
213	0x3e22b090	0.15887666
214	0xbdfdb534	-0.123880774
215	0x3f0cd013	0.55004996
216	0xbf7269db	-0.9469277
217	0xbf421bf8	-0.75823927
218	0x3f0d3032	0.55151665
219	0xbf318f47	-0.6935925
220	0x3edf072c	0.4356016
221	0x3cea808e	0.028625753
222	0xbdb9424f	-0.090458505
223	0x3f1876e5	0.5955642
224	0xbf0f002e	-0.5585965
225	0x3f21f347	0.63261837
226	0xbf3e3660	-0.7430172
227	0x3dc498b7	0.095994405
228	0x3e2fbd92	0.17162159
229	0x3f16181e	0.5863055
230	0xbcd57dca	-0.026060957
231	0xbe23ebb3	-0.16007881
232	0xbf555b0b	-0.83342046
233	0x3f23adae	0.6393689
234	0x3f52f69c	0.82407546
235	0xbfb38f66	-1.4028137
236	0xbd48e44e	-0.049045853
237	0xbf01aa13	-0.5065014
238	0x3e297fcc	0.16552657
239	0xbfb19bb3	-1.3875641
240	0xbefba18b	-0.49146685
241	0xbe11c015	-0.1423343
242	0xbd4b4041	-0.049621824
243	0xbddacc9e	-0.10683559
244	0xbdeddeab	-0.11614736
245	0x3dca5faf	0.098815314
246	0x3ee17abd	0.44038954
247	0x3f00a6df	0.50254625
248	0xbe2f98f8	-0.17148197
249	0xbecf74ef	-0.405189
250	0x3ed73ba9	0.42037705
251	0xbe1e1ede	-0.15441462
252	0xbf444687	-0.76670116
253	0xbf6e47b4	-0.9307816
254	0xbea2b918	-0.3178184
255	0xbc77dd19	-0.015128397

rnn.fc.bias f4 [32]
0	0xbd5b75fb	-0.05357931
1	0xbf78fb12	-0.972581
2	0x3d3c0c49	0.045910154
3	0x3e147f6c	0.14501733
4	0x3e04457b	0.1291713
5	0x3eb9237d	0.36159888
6	0x3f8274a3	1.0191845
7	0x3e739578	0.23787487
8	0xbd265ee2	-0.04061783
9	0xbb1aba96	-0.002360975
10	0xbffeff1d	-1.9921604
11	0xbfd8b7c1	-1.6931077
12	0xbe208d0d	-0.15678807
13	0x3d1ccb98	0.0382801
14	0xbddc8e35	-0.10769311
15	0x3f6bc98d	0.9210442
16	0x3d5cb7b2	0.053886123
17	0xc00f727f	-2.2413633
18	0x3e99ca43	0.30037126
19	0x3cfdbc0b	0.030973455
20	0x3dca9173	0.098910235
21	0xbe981a2c	-0.29707468
22	0xbdb0a0d9	-0.08624429
23	0xbeadceb7	-0.33946773
24	0x3c137112	0.008999126
25	0xbfdbac23	-1.7161907
26	0xbe2255ba	-0.15853015
27	0x3da30017	0.079590015
28	0xbf17f285	-0.5935443
29	0xbbcce076	-0.0062523438
30	0x3e571042	0.21002296
31	0x3d79e992	0.061013766

rnn.fc_mean.weight f4 [3, 32]
0	0xbf586852	-0.8453418
1	0xbf41dfe2	-0.75732243
2	0x3dae1d61	0.08501697
3	0x3b4b4014	0.0031013535
4	0xbe1f2830	-0.15542674
5	0x3f2e91b3	0.6819107
6	0x3f91fae3	1.140469
7	0xbfc12105	-1.5088202
8	0xbe08e42a	-0.13368288
9	0x3e8d71e8	0.27625966
10	0x4017e84e	2.3735538
11	0xc06292f7	-3.54022
12	0x3db68bda	0.08913393
13	0x3ca62071	0.020279141
14	0xbeae87e8	-0.34088063
15	0x3f1d9cf3	0.6156761
16	0xbe4aceec	-0.19805497
17	0x3ec4f2fc	0.38466632
18	0x3ec3c883	0.38238916
19	0xbe838268	-0.2568543
20	0xbd7d3e2e	-0.061826877
21	0x3fcb75f3	1.589537
22	0x3f434a4a	0.7628523
23	0x3caf3db7	0.021391733
24	0xbd0d02f8	-0.03442666
25	0x4078b2ba	3.8859086
26	0xbf05d4f0	-0.5227804
27	0x3f1a4cf0	0.6027365
28	0xc0181093	-2.3760116
29	0xbd4ddd76	-0.05026003
30	0xbedf40f5	-0.43604246
31	0x3de0a719	0.10969371
32	0xbf041c6f	-0.51605886
33	0x3fbb721e	1.4644201
34	0xbdeb9750	-0.1150347
35	0xbeba9da0	-0.36448383
36	0xbdd4fbfa	-0.10399623
37	0xbf111d9e	-0.5668582
38	0x3e506710	0.20351815
39	0xbfc9e20d	-1.577211
40	0xbe0a3698	-0.13497388
41	0x3ec00ab4	0.37508166
42	0x409ca5e8	4.895252
43	0x3f385ef2	0.72019875
44	0xbd019a66	-0.031641386
45	0xbd8b59d5	-0.068042435
46	0xbd68b043	-0.05680872
47	0xbfaa5f5d	-1.3310353
48	0xbefc944c	-0.49331892
49	0x4075370c	3.8314848
50	0x3f18b48d	0.596505
51	0x3c2e542b	0.010640184
52	0x3e89e8a9	0.26935318
53	0x404a1e1d	3.158088
54	0x3f168d39	0.5880924
55	0xbdd02aac	-0.10164389
56	0x3e229855	0.15878423
57	0xbf09a48b	-0.537667
58	0xbe9705d9	-0.2949665
59	0x3f72cb9a	0.9484192
60	0xc069c91f	-3.6529005
61	0x3e09afb3	0.1344593
62	0xbefe3e36	-0.49656838
63	0x3e61a8a1	0.22036983
64	0x3f5d4e4f	0.86447614
65	0xbf9b7606	-1.2145393
66	0x3ea57ef5	0.32323423
67	0x3e54ed1a	0.20793572
68	0x3e9a986c	0.30194414
69	0xbf20cdd4	-0.6281407
70	0xc0448e99	-3.0712035
71	0x3e56ea7c	0.20987886
72	0x3eb1d13d	0.3472995
73	0x3e94b896	0.29047078
74	0x3fdbd1ff	1.7173461
75	0x3fea01e1	1.8281823
76	0x4029683f	2.6469877
77	0x3e9eee94	0.31041396
78	0x3ec8d096	0.39221638
79	0xbf4e5b00	-0.80607605
80	0x3da3cd5f	0.07998156
81	0xbfcebf79	-1.6152183
82	0x3ea70957	0.32624313
83	0x3edd7577	0.4325368
84	0x3ee23d44	0.44187367
85	0x3f4b5696	0.79428995
86	0x3f07604a	0.528813
87	0x3f0db167	0.5534882
88	0x3ee1770a	0.44036132
89	0xbf045c5d	-0.51703435
90	0x3ee166fd	0.44023886
91	0x3eb5b80c	0.3549198
92	0xbfdb85cb	-1.7150205
93	0x3ebf3759	0.37346914
94	0x3e74e3b1	0.23914982
95	0x3edd9eda	0.43285257

rnn.fc_mean.bias f4 [3]
0	0x3df66f70	0.12032974
1	0xbdddfeae	-0.10839592
2	0x3bf253f6	0.007395263

rnn.fc_vars.weight f4 [3, 32]
0	0x3fa7886c	1.3088508
1	0x407c1255	3.938619
2	0x40177f91	2.367161
3	0x3d2e7bac	0.04259841
4	0x401e2379	2.470915
5	0x408c806e	4.3906775
6	0x40f53684	7.6629047
7	0x40218214	2.5235643
8	0x3f5f4769	0.8721834
9	0x3ed185d0	0.40922403
10	0xc09de4d1	-4.9341817
11	0xc14f13d5	-12.942342
12	0x401dd68b	2.4662197
13	0x3fc8e21d	1.5694004
14	0x3f99da59	1.201976
15	0x4084e0d5	4.1524453
16	0x3fdaac43	1.708382
17	0xc0570d59	-3.3601897
18	0x3f8ada88	1.084794
19	0x3f189f2a	0.59617865
20	0x3fd0a0b7	1.6299046
21	0x3f615e00	0.8803406
22	0x3f7b22cb	0.98099965
23	0x3e28eb65	0.16496046
24	0x3fc49af9	1.5359794
25	0xc0f8da69	-7.7766614
26	0x3f208cd0	0.6271486
27	0x3e8ea587	0.27860662
28	0x418a78d5	17.309
29	0x402fb06a	2.7451425
30	0x4000eba1	2.0143816
31	0x3f90ef57	1.1323041
32	0x4056b7bc	3.3549643
33	0x41652e90	14.323868
34	0xbd0a4ddc	-0.03376566
35	0x3ef7be9e	0.48387617
36	0x3fe0a410	1.7550068
37	0x409877b1	4.764611
38	0x3f9069f8	1.1282339
39	0x415f23fd	13.946286
40	0x401de34d	2.4669983
41	0x407b0d3d	3.922683
42	0x412f840e	10.96974
43	0xc0e34083	-7.101625
44	0x405d8c4e	3.4616885
45	0x3ecbc676	0.3979985
46	0x40353b3b	2.8317401
47	0x3f389667	0.72104496
48	0x3fca3494	1.5797296
49	0x40d7f742	6.748933
50	0x400240ea	2.035212
51	0x401bcb4f	2.434284
52	0x403b010c	2.921939
53	0x4032ae36	2.791883
54	0x401b767d	2.429107
55	0x3e0949d5	0.13407071
56	0x401da401	2.463135
57	0x41a94c6f	21.162321
58	0x3ff03013	1.8764671
59	0x40283c62	2.6286855
60	0xc109cd82	-8.612673
61	0x3fa0ef6b	1.2573065
62	0x3fdf5499	1.7447692
63	0x40149710	2.3217201
64	0x40088580	2.1331482
65	0x40378db6	2.8680243
66	0x3fcda17c	1.6064906
67	0x3f2a4f94	0.66527677
68	0x4005ad3d	2.0886986
69	0x4085a2b2	4.1761103
70	0x40f26bea	7.575673
71	0x41038733	8.220508
72	0x3fdd7d1f	1.7303809
73	0x3fd142dd	1.634853
74	0x4099c199	4.8048825
75	0x40c76670	6.2312546
76	0x40840b63	4.12639
77	0x3fe55baa	1.7918599
78	0x3faf56d7	1.3698376
79	0x412f418b	10.953502
80	0x3f7aee62	0.98019993
81	0x3fa42971	1.2825147
82	0x3fcee400	1.616333
83	0x3fa73872	1.3064101
84	0x400e3048	2.2216969
85	0x40a8aa75	5.2708077
86	0x3faac62b	1.3341726
87	0x3ec092ad	0.37611905
88	0x3fd505ac	1.6642356
89	0x40a71de2	5.222398
90	0x3f8567bc	1.0422282
91	0x3fa37f7b	1.2773279
92	0x4118be76	9.546499
93	0x4024160e	2.563846
94	0x3ff927a6	1.9465225
95	0x4003eca1	2.0613177

rnn.fc_vars.bias f4 [3]
0	0x3fdb5d14	1.713778
1	0x4088bd15	4.2730813
2	0x401413e8	2.313715
